ode_net/code/output/2023-10-7(8;26)_chalmers_350genes_150samples_earlyT_0bimod_1initvar_300epochs/interm_models/trained_model_epoch_220_sums.pt (torch, 170975 bytes, 4 tensors)

bias f4 [40]
000000 a6 97 db bd 60 91 6d bd 77 c2 c6 3d 4e fe c7 bb
       -0.10722284 -0.05799997 0.0970506 -0.0061033135
000010 e1 1a e5 bd 15 2a da bc b8 31 09 3e b2 55 8c bd
       -0.11186767 -0.026631394 0.13397872 -0.068522826
000020 ac 8a aa bd 30 5b fa 3a b3 bd a9 3d 69 01 44 3d
       -0.08327231 0.0019100662 0.082881354 0.047852907
000030 07 1e db bd c5 ca 3b bd fb a0 09 3e 48 a2 31 3b
       -0.10699087 -0.045847673 0.13440315 0.0027104784
000040 b6 d8 2f 3d c3 6f 5b be cb a4 a0 3c 2e ed 9f ba
       0.04293128 -0.21429352 0.01960983 -0.0012201422
000050 17 5c 8e 3c ca d2 8b 3d 16 37 c6 bc 00 be 0d 3e
       0.017377896 0.06827314 -0.024196189 0.1384201
000060 fa bc 05 bd 3f 6a 3c bd 96 ca 88 3d f8 ee 33 bd
       -0.032650925 -0.04599976 0.06679265 -0.04392907
000070 27 d3 51 bd 45 ab c6 bc ca 3f 8b 3d 70 e1 0b 3d
       -0.05122676 -0.02425159 0.06799276 0.03415054
000080 f8 82 20 bd da b0 13 3d 80 01 17 bb ef ba 91 3d
       -0.0391874 0.03605733 -0.0023041666 0.07115733
000090 e2 1b da 3d a9 8a 72 bd 23 86 82 3d dd 0f 3b be
       0.106498495 -0.059214268 0.06373241 -0.1826777

weight_orig f4 [40, 350]
000000 a0 35 cc 3e 58 5e d7 bc d3 72 97 3d 79 7b ca bc
       0.39884663 -0.026290104 0.07394948 -0.02471708
000010 d4 a8 d9 3c b0 8b f5 3d 04 c8 cf 3e ce 7d d7 3c
       0.026569761 0.11989534 0.40582287 0.026305106
000020 15 dd 9e 3c 3d cb 72 3c 19 2d 9a bb 94 2d 4c bb
       0.01939253 0.014818964 -0.004705083 -0.0031155096
000030 2a 74 d7 3a c2 92 03 3c 9d 02 08 3b 11 02 aa bc
       0.0016437818 0.008030595 0.002075351 -0.020752938
000040 74 2a cc ba d0 37 e7 3e 03 ba 5a bf 27 1b c8 3c
       -0.0015576617 0.4515977 -0.8544008 0.02442701
000050 47 5a 2c 3f 04 7f d6 3c c0 b2 24 be 7b 9f 0b 3e
       0.6732525 0.026183613 -0.16083813 0.13635056
000060 e4 54 16 be 82 7d 77 bc 86 81 74 bc 5b 8a 0d 3b
       -0.1468082 -0.015105607 -0.014923459 0.002159736
000070 b4 71 b1 3e 68 4f f9 3c 4c 38 94 3e 7e 92 2d bb
       0.3465706 0.030433372 0.289492 -0.0026485021
000080 81 d8 91 bc 40 09 e1 bb 83 78 dd 3c d9 5e d3 bc
       -0.017803432 -0.0068675578 0.027035004 -0.025802063
000090 ac 33 73 3b 4e 47 dd ba 16 a8 a7 be 35 eb 02 bd
       0.0037109656 -0.0016882212 -0.32745427 -0.031962592
0000a0 da 40 a6 bd a1 3e 41 3d cb b0 e3 bb 84 f4 8d 3b
       -0.08117838 0.04717887 -0.0069485656 0.004332127
0000b0 38 d8 af 3c 4c e9 6a b9 81 d5 d8 3c 29 3c bc bd
       0.021465406 -0.00022402889 0.026468994 -0.09191162
0000c0 d9 04 a3 bd fd 45 06 bc 99 ba 2e 3d 51 ca e4 3c
       -0.07959909 -0.008195397 0.042658422 0.027928503
0000d0 88 76 48 3e 66 7a ba be b6 5c 67 3b 9f b3 43 3c
       0.19576466 -0.36421508 0.0035303063 0.0119446805
0000e0 0f 9f 4b 3d df ce 22 bd ff aa a5 be 11 9d b1 3d
       0.049712237 -0.03974807 -0.32357022 0.08672536
0000f0 50 be 2b 3c e4 31 2c bd 7a 45 aa 3e 4c af 83 bd
       0.010482386 -0.042039767 0.3325613 -0.064299196
000100 79 82 40 3b a9 04 17 bf 6f 88 06 bf bd e0 e0 bc
       0.0029374643 -0.58991486 -0.5255193 -0.027450914
000110 0c 89 c3 3e 68 17 cf bb 17 e2 29 be cf 4e 82 3d
       0.38190496 -0.006319929 -0.16590153 0.06362688
000120 31 51 ab 3b 6c 52 7e 3d 64 4f 02 bd 73 02 95 bd
       0.0052281846 0.062090322 -0.031813994 -0.07275858
000130 4a 15 99 bc e7 1b 6e bc 58 f2 1a be 8d df 01 be
       -0.01868691 -0.01453302 -0.1513151 -0.12682934
000140 fc 7d 47 3d 8e 9a 74 3c 04 d0 80 be 0d 6f ae 3e
       0.048704132 0.014929427 -0.25158703 0.340691
000150 7f c5 cf 3d 42 df 50 bd 4d f1 0d 3e 26 2e f5 3e
       0.10145091 -0.050994165 0.1386158 0.4788677
000160 c0 37 af bd 1f 32 2a be cb b2 d1 3d 39 18 3e bd
       -0.08555555 -0.16620682 0.1023918 -0.04640982
000170 05 b9 96 bc 68 44 11 3c 31 67 46 be aa 3e a9 3b
       -0.018398771 0.008866407 -0.19375302 0.005164941
000180 f3 46 ac 3e 39 54 ab bc 0a 0a 2b bc c4 5a fd 3b
       0.3364788 -0.020914184 -0.010439405 0.0077317674
000190 a8 24 75 bd 55 da c8 bd 02 24 2d bb 2e f3 92 bc
       -0.05984941 -0.098072685 -0.0026419167 -0.017938223
0001a0 d2 39 e9 3b f6 9b b5 bc 00 e0 80 bc 12 62 6f bd
       0.0071174884 -0.022169095 -0.015731812 -0.058443137
0001b0 9b 0c 2e bd 0c 42 cf bb 5c 1c f5 bb 2b c2 32 bc
       -0.04249249 -0.006325012 -0.0074801873 -0.010910551
0001c0 03 79 07 bc f3 68 01 bd 46 02 5d 3c cb 4b 14 3c
       -0.008268598 -0.031594228 0.013489312 0.009051274
0001d0 78 94 30 bb ad 79 db 3c e9 4c cb bb 84 31 5f 3c
       -0.0026943963 0.026791418 -0.0062042368 0.013622645
0001e0 61 4e 82 bc cd 10 ab bc 96 18 7a bc cb ba eb bb
       -0.015906515 -0.020882035 -0.015264651 -0.0071938983
0001f0 7f fb 15 b9 be f7 77 bc bb b1 93 3b 7e e0 dc 3b
       -0.00014303437 -0.01513475 0.004507271 0.0067406287
000200 53 db 75 3c 24 19 4d bc 79 82 64 bb b5 d7 3a bc
       0.015005904 -0.012518201 -0.0034867807 -0.011403968
000210 64 bb bc bc b6 22 2c bc 67 57 9f 3c 28 ae 63 3b
       -0.023038574 -0.010506323 0.019450856 0.0034741256
000220 ae ab 96 bd 9b 78 ce bc d7 14 28 3c df c2 d9 3b
       -0.07356964 -0.025203994 0.010258875 0.006645545
000230 47 ed 6f 3c ea ae ca ba 86 e6 c3 bc e0 ec a4 3c
       0.014643974 -0.0015463505 -0.023913633 0.020132482
000240 2e d8 d7 bb 90 55 42 3c 1f 28 ea bc 57 e2 46 bc
       -0.00658705 0.01186122 -0.028583584 -0.012138925
000250 cb 0e 7e bd 99 c2 8f 3c b4 7f a2 3b 88 22 c4 bc
       -0.062025826 0.017548846 0.004959071 -0.023942247
000260 2d 59 d4 3c 8a 16 8c bb 43 6f 98 3c f1 d4 17 bc
       0.025921429 -0.004275148 0.018607741 -0.009267078
000270 11 01 89 3c 81 4e 1f bd 21 c4 d7 bc 07 4a 00 bd
       0.016724141 -0.038893227 -0.026338639 -0.031320598
000280 93 2e ce b9 54 f1 b4 3b 7b 55 15 ba 68 f1 b7 3c
       -0.00039326082 0.0055219326 -0.00056966365 0.022453979
000290 b9 ae 8d bc a9 cd a1 3a 8c 40 80 3c 92 12 c6 bc
       -0.017295228 0.0012344617 0.015655778 -0.024178777
0002a0 b7 b8 73 ba 90 a3 6d 3a 18 89 f2 3c 89 83 c9 bb
       -0.0009297239 0.0009065205 0.029606387 -0.0061497134
0002b0 5e 5a f9 3c fc ff b8 39 a3 50 e4 3b b9 4e 75 3d
       0.030438598 0.00035285938 0.0069676205 0.05988953
0002c0 85 12 ac bc 93 c5 1d bc 02 93 c6 3b fb a1 2c 3b
       -0.021004925 -0.009629625 0.006060005 0.0026341665
0002d0 00 b9 46 3d d4 8f d9 bc 89 4e 22 3d 22 e9 13 3c
       0.048516273 -0.02655784 0.03962568 0.009027751
0002e0 ae a5 17 bc 35 e3 9b bc 3c ff f5 bb 00 8c 1e 3c
       -0.00925581 -0.01902924 -0.007507233 0.009676933
0002f0 88 db a8 bc 4e 73 c9 3c e9 c6 c6 bc c0 73 b7 3c
       -0.020612493 0.024591114 -0.02426477 0.022394061
000300 1f 85 42 bd af f9 16 bb 6e a5 89 bc 6c 3a 8a bd
       -0.047490235 -0.0023037007 -0.016802516 -0.06749424
000310 3b e2 5d bc 8e 72 44 3c cf 59 9f 3b 9c 14 a4 bb
       -0.013542707 0.011990203 0.004863001 -0.0050073396
000320 f4 ad 71 3c b1 24 1d bc e3 8a b2 bc 23 3e 81 bc
       0.014750946 -0.009591267 -0.021794742 -0.0157767
000330 dc 13 1c bc 85 63 4d 3c fa d5 d5 bc b5 ef 98 bc
       -0.009526219 0.012535934 -0.026103009 -0.018668989
000340 ec a2 d7 bb 23 2f 55 bd 5d 67 a6 bc 57 eb ce bc
       -0.006580701 -0.052046906 -0.02031296 -0.025258703
000350 70 55 82 bd eb c7 2b 3c 22 60 bb bb bc 2a 1e bd
       -0.06363952 0.010484676 -0.005718247 -0.038614973
000360 50 ab a2 bc 64 b1 d9 bb 50 02 85 3b e4 d7 37 bc
       -0.019857079 -0.006643461 0.0040591136 -0.011220906
000370 c7 e2 49 bd 4e e0 dd bc f4 2c ee bb 4c 80 3e bc
       -0.049288537 -0.027084496 -0.0072685424 -0.011627268
000380 96 2f ae bc 24 28 2b bc 97 47 8f bc c2 b6 e0 bc
       -0.021262925 -0.010446582 -0.017490191 -0.027430896
000390 ee ab 70 3b 48 1f 18 bc a3 08 cb bb 4f f5 c6 bc
       0.0036723572 -0.009284802 -0.006196098 -0.024286894
0003a0 76 9d b8 bc 97 51 22 bb 48 18 93 bb e3 8e f9 3b
       -0.02253602 -0.002476787 -0.0044889785 0.0076159104
0003b0 82 3a 84 bc e6 6d a1 bc 13 40 73 bc cc c9 41 bd
       -0.01614118 -0.019705724 -0.014846819 -0.04731159
0003c0 d9 af 91 bc 1c e6 7d bc 31 bb 60 3c 86 43 9e 3c
       -0.017784046 -0.015496757 0.013716505 0.019319307
0003d0 d1 b1 97 bc 46 a8 33 bd 41 c9 d0 3c b3 ec 8f 3c
       -0.018517407 -0.04386165 0.02548659 0.017568922
0003e0 da 23 9e bc 96 0f a7 bb 31 98 c5 bc e9 7e 49 bc
       -0.019304205 -0.0050982935 -0.024120422 -0.012298324
0003f0 37 a6 d5 bb 39 f7 ac bc 46 7f 7e bb 69 8b bc bd
       -0.0065200585 -0.021113979 -0.0038833185 -0.09206278

weight_mask f4 [40, 350]
000000 00 00 80 3f 00 00 00 00 00 00 80 3f 00 00 80 3f
       1.0 0.0 1.0 1.0
000010 00 00 00 00 00 00 80 3f 00 00 80 3f 00 00 00 00
       0.0 1.0 1.0 0.0
000020 00 00 00 00 00 00 80 3f 00 00 00 00 00 00 00 00
       0.0 1.0 0.0 0.0
000030 00 00 00 00 00 00 00 00 00 00 80 3f 00 00 80 3f
       0.0 0.0 1.0 1.0
000040 00 00 00 00 00 00 80 3f 00 00 80 3f 00 00 80 3f
       0.0 1.0 1.0 1.0
000050 00 00 80 3f 00 00 80 3f 00 00 80 3f 00 00 80 3f
       1.0 1.0 1.0 1.0
000060 00 00 80 3f 00 00 00 00 00 00 00 00 00 00 00 00
       1.0 0.0 0.0 0.0
000070 00 00 80 3f 00 00 80 3f 00 00 80 3f 00 00 80 3f
       1.0 1.0 1.0 1.0
000080 00 00 00 00 00 00 00 00 00 00 80 3f 00 00 00 00
       0.0 0.0 1.0 0.0
000090 00 00 80 3f 00 00 00 00 00 00 80 3f 00 00 80 3f
       1.0 0.0 1.0 1.0
0000a0 00 00 80 3f 00 00 80 3f 00 00 80 3f 00 00 00 00
       1.0 1.0 1.0 0.0
0000b0 00 00 00 00 00 00 00 00 00 00 80 3f 00 00 80 3f
       0.0 0.0 1.0 1.0
0000c0 00 00 80 3f 00 00 00 00 00 00 80 3f 00 00 00 00
       1.0 0.0 1.0 0.0
0000d0 00 00 80 3f 00 00 80 3f 00 00 00 00 00 00 00 00
       1.0 1.0 0.0 0.0
0000e0 00 00 80 3f 00 00 80 3f 00 00 80 3f 00 00 80 3f
       1.0 1.0 1.0 1.0
0000f0 00 00 00 00 00 00 80 3f 00 00 80 3f 00 00 80 3f
       0.0 1.0 1.0 1.0
000100 00 00 00 00 00 00 80 3f 00 00 80 3f 00 00 00 00
       0.0 1.0 1.0 0.0
000110 00 00 80 3f 00 00 00 00 00 00 80 3f 00 00 80 3f
       1.0 0.0 1.0 1.0
000120 00 00 00 00 00 00 80 3f 00 00 80 3f 00 00 80 3f
       0.0 1.0 1.0 1.0
000130 00 00 00 00 00 00 00 00 00 00 80 3f 00 00 80 3f
       0.0 0.0 1.0 1.0
000140 00 00 80 3f 00 00 00 00 00 00 80 3f 00 00 80 3f
       1.0 0.0 1.0 1.0
000150 00 00 80 3f 00 00 80 3f 00 00 80 3f 00 00 80 3f
       1.0 1.0 1.0 1.0
000160 00 00 80 3f 00 00 80 3f 00 00 80 3f 00 00 80 3f
       1.0 1.0 1.0 1.0
000170 00 00 00 00 00 00 00 00 00 00 80 3f 00 00 00 00
       0.0 0.0 1.0 0.0
000180 00 00 80 3f 00 00 00 00 00 00 80 3f 00 00 00 00
       1.0 0.0 1.0 0.0
000190 00 00 80 3f 00 00 80 3f 00 00 00 00 00 00 00 00
       1.0 1.0 0.0 0.0
0001a0 00 00 00 00 00 00 00 00 00 00 80 3f 00 00 80 3f
       0.0 0.0 1.0 1.0
0001b0 00 00 80 3f 00 00 00 00 00 00 80 3f 00 00 80 3f
       1.0 0.0 1.0 1.0
0001c0 00 00 00 00 00 00 80 3f 00 00 00 00 00 00 00 00
       0.0 1.0 0.0 0.0
0001d0 00 00 00 00 00 00 00 00 00 00 00 00 00 00 80 3f
       0.0 0.0 0.0 1.0
0001e0 00 00 00 00 00 00 80 3f 00 00 00 00 00 00 00 00
       0.0 1.0 0.0 0.0
0001f0 00 00 00 00 00 00 00 00 00 00 80 3f 00 00 80 3f
       0.0 0.0 1.0 1.0
000200 00 00 00 00 00 00 00 00 00 00 00 00 00 00 00 00
       0.0 0.0 0.0 0.0
000210 00 00 80 3f 00 00 00 00 00 00 00 00 00 00 00 00
       1.0 0.0 0.0 0.0
000220 00 00 80 3f 00 00 00 00 00 00 00 00 00 00 80 3f
       1.0 0.0 0.0 1.0
000230 00 00 00 00 00 00 00 00 00 00 00 00 00 00 80 3f
       0.0 0.0 0.0 1.0
000240 00 00 80 3f 00 00 80 3f 00 00 00 00 00 00 00 00
       1.0 1.0 0.0 0.0
000250 00 00 80 3f 00 00 00 00 00 00 00 00 00 00 00 00
       1.0 0.0 0.0 0.0
000260 00 00 00 00 00 00 00 00 00 00 00 00 00 00 00 00
       0.0 0.0 0.0 0.0
000270 00 00 00 00 00 00 80 3f 00 00 80 3f 00 00 80 3f
       0.0 1.0 1.0 1.0
000280 00 00 00 00 00 00 00 00 00 00 80 3f 00 00 00 00
       0.0 0.0 1.0 0.0
000290 00 00 80 3f 00 00 00 00 00 00 00 00 00 00 80 3f
       1.0 0.0 0.0 1.0
0002a0 00 00 80 3f 00 00 80 3f 00 00 80 3f 00 00 00 00
       1.0 1.0 1.0 0.0
0002b0 00 00 80 3f 00 00 80 3f 00 00 80 3f 00 00 80 3f
       1.0 1.0 1.0 1.0
0002c0 00 00 00 00 00 00 00 00 00 00 00 00 00 00 00 00
       0.0 0.0 0.0 0.0
0002d0 00 00 80 3f 00 00 00 00 00 00 80 3f 00 00 80 3f
       1.0 0.0 1.0 1.0
0002e0 00 00 00 00 00 00 00 00 00 00 00 00 00 00 00 00
       0.0 0.0 0.0 0.0
0002f0 00 00 80 3f 00 00 00 00 00 00 00 00 00 00 80 3f
       1.0 0.0 0.0 1.0
000300 00 00 80 3f 00 00 00 00 00 00 00 00 00 00 80 3f
       1.0 0.0 0.0 1.0
000310 00 00 80 3f 00 00 80 3f 00 00 00 00 00 00 00 00
       1.0 1.0 0.0 0.0
000320 00 00 80 3f 00 00 00 00 00 00 00 00 00 00 80 3f
       1.0 0.0 0.0 1.0
000330 00 00 00 00 00 00 00 00 00 00 80 3f 00 00 80 3f
       0.0 0.0 1.0 1.0
000340 00 00 00 00 00 00 80 3f 00 00 00 00 00 00 00 00
       0.0 1.0 0.0 0.0
000350 00 00 80 3f 00 00 80 3f 00 00 00 00 00 00 80 3f
       1.0 1.0 0.0 1.0
000360 00 00 80 3f 00 00 00 00 00 00 00 00 00 00 00 00
       1.0 0.0 0.0 0.0
000370 00 00 80 3f 00 00 00 00 00 00 00 00 00 00 80 3f
       1.0 0.0 0.0 1.0
000380 00 00 80 3f 00 00 00 00 00 00 00 00 00 00 00 00
       1.0 0.0 0.0 0.0
000390 00 00 00 00 00 00 80 3f 00 00 00 00 00 00 00 00
       0.0 1.0 0.0 0.0
0003a0 00 00 80 3f 00 00 80 3f 00 00 00 00 00 00 00 00
       1.0 1.0 0.0 0.0
0003b0 00 00 00 00 00 00 80 3f 00 00 00 00 00 00 80 3f
       0.0 1.0 0.0 1.0
0003c0 00 00 00 00 00 00 80 3f 00 00 00 00 00 00 00 00
       0.0 1.0 0.0 0.0
0003d0 00 00 00 00 00 00 80 3f 00 00 00 00 00 00 00 00
       0.0 1.0 0.0 0.0
0003e0 00 00 00 00 00 00 00 00 00 00 80 3f 00 00 00 00
       0.0 0.0 1.0 0.0
0003f0 00 00 00 00 00 00 80 3f 00 00 00 00 00 00 80 3f
       0.0 1.0 0.0 1.0

weight f4 [40, 350]
000000 a0 35 cc 3e 00 00 00 80 d3 72 97 3d 79 7b ca bc
       0.39884663 -0.0 0.07394948 -0.02471708
000010 00 00 00 00 b0 8b f5 3d 04 c8 cf 3e 00 00 00 00
       0.0 0.11989534 0.40582287 0.0
000020 00 00 00 00 3d cb 72 3c 00 00 00 80 00 00 00 80
       0.0 0.014818964 -0.0 -0.0
000030 00 00 00 00 00 00 00 00 9d 02 08 3b 11 02 aa bc
       0.0 0.0 0.002075351 -0.020752938
000040 00 00 00 80 d0 37 e7 3e 03 ba 5a bf 27 1b c8 3c
       -0.0 0.4515977 -0.8544008 0.02442701
000050 47 5a 2c 3f 04 7f d6 3c c0 b2 24 be 7b 9f 0b 3e
       0.6732525 0.026183613 -0.16083813 0.13635056
000060 e4 54 16 be 00 00 00 80 00 00 00 80 00 00 00 00
       -0.1468082 -0.0 -0.0 0.0
000070 b4 71 b1 3e 68 4f f9 3c 4c 38 94 3e 7e 92 2d bb
       0.3465706 0.030433372 0.289492 -0.0026485021
000080 00 00 00 80 00 00 00 80 83 78 dd 3c 00 00 00 80
       -0.0 -0.0 0.027035004 -0.0
000090 ac 33 73 3b 00 00 00 80 16 a8 a7 be 35 eb 02 bd
       0.0037109656 -0.0 -0.32745427 -0.031962592
0000a0 da 40 a6 bd a1 3e 41 3d cb b0 e3 bb 00 00 00 00
       -0.08117838 0.04717887 -0.0069485656 0.0
0000b0 00 00 00 00 00 00 00 80 81 d5 d8 3c 29 3c bc bd
       0.0 -0.0 0.026468994 -0.09191162
0000c0 d9 04 a3 bd 00 00 00 80 99 ba 2e 3d 00 00 00 00
       -0.07959909 -0.0 0.042658422 0.0
0000d0 88 76 48 3e 66 7a ba be 00 00 00 00 00 00 00 00
       0.19576466 -0.36421508 0.0 0.0
0000e0 0f 9f 4b 3d df ce 22 bd ff aa a5 be 11 9d b1 3d
       0.049712237 -0.03974807 -0.32357022 0.08672536
0000f0 00 00 00 00 e4 31 2c bd 7a 45 aa 3e 4c af 83 bd
       0.0 -0.042039767 0.3325613 -0.064299196
000100 00 00 00 00 a9 04 17 bf 6f 88 06 bf 00 00 00 80
       0.0 -0.58991486 -0.5255193 -0.0
000110 0c 89 c3 3e 00 00 00 80 17 e2 29 be cf 4e 82 3d
       0.38190496 -0.0 -0.16590153 0.06362688
000120 00 00 00 00 6c 52 7e 3d 64 4f 02 bd 73 02 95 bd
       0.0 0.062090322 -0.031813994 -0.07275858
000130 00 00 00 80 00 00 00 80 58 f2 1a be 8d df 01 be
       -0.0 -0.0 -0.1513151 -0.12682934
000140 fc 7d 47 3d 00 00 00 00 04 d0 80 be 0d 6f ae 3e
       0.048704132 0.0 -0.25158703 0.340691
000150 7f c5 cf 3d 42 df 50 bd 4d f1 0d 3e 26 2e f5 3e
       0.10145091 -0.050994165 0.1386158 0.4788677
000160 c0 37 af bd 1f 32 2a be cb b2 d1 3d 39 18 3e bd
       -0.08555555 -0.16620682 0.1023918 -0.04640982
000170 00 00 00 80 00 00 00 00 31 67 46 be 00 00 00 00
       -0.0 0.0 -0.19375302 0.0
000180 f3 46 ac 3e 00 00 00 80 0a 0a 2b bc 00 00 00 00
       0.3364788 -0.0 -0.010439405 0.0
000190 a8 24 75 bd 55 da c8 bd 00 00 00 80 00 00 00 80
       -0.05984941 -0.098072685 -0.0 -0.0
0001a0 00 00 00 00 00 00 00 80 00 e0 80 bc 12 62 6f bd
       0.0 -0.0 -0.015731812 -0.058443137
0001b0 9b 0c 2e bd 00 00 00 80 5c 1c f5 bb 2b c2 32 bc
       -0.04249249 -0.0 -0.0074801873 -0.010910551
0001c0 00 00 00 80 f3 68 01 bd 00 00 00 00 00 00 00 00
       -0.0 -0.031594228 0.0 0.0
0001d0 00 00 00 80 00 00 00 00 00 00 00 80 84 31 5f 3c
       -0.0 0.0 -0.0 0.013622645
0001e0 00 00 00 80 cd 10 ab bc 00 00 00 80 00 00 00 80
       -0.0 -0.020882035 -0.0 -0.0
0001f0 00 00 00 80 00 00 00 80 bb b1 93 3b 7e e0 dc 3b
       -0.0 -0.0 0.004507271 0.0067406287
000200 00 00 00 00 00 00 00 80 00 00 00 80 00 00 00 80
       0.0 -0.0 -0.0 -0.0
000210 64 bb bc bc 00 00 00 80 00 00 00 00 00 00 00 00
       -0.023038574 -0.0 0.0 0.0
000220 ae ab 96 bd 00 00 00 80 00 00 00 00 df c2 d9 3b
       -0.07356964 -0.0 0.0 0.006645545
000230 00 00 00 00 00 00 00 80 00 00 00 80 e0 ec a4 3c
       0.0 -0.0 -0.0 0.020132482
000240 2e d8 d7 bb 90 55 42 3c 00 00 00 80 00 00 00 80
       -0.00658705 0.01186122 -0.0 -0.0
000250 cb 0e 7e bd 00 00 00 00 00 00 00 00 00 00 00 80
       -0.062025826 0.0 0.0 -0.0
000260 00 00 00 00 00 00 00 80 00 00 00 00 00 00 00 80
       0.0 -0.0 0.0 -0.0
000270 00 00 00 00 81 4e 1f bd 21 c4 d7 bc 07 4a 00 bd
       0.0 -0.038893227 -0.026338639 -0.031320598
000280 00 00 00 80 00 00 00 00 7b 55 15 ba 00 00 00 00
       -0.0 0.0 -0.00056966365 0.0
000290 b9 ae 8d bc 00 00 00 00 00 00 00 00 92 12 c6 bc
       -0.017295228 0.0 0.0 -0.024178777
0002a0 b7 b8 73 ba 90 a3 6d 3a 18 89 f2 3c 00 00 00 80
       -0.0009297239 0.0009065205 0.029606387 -0.0
0002b0 5e 5a f9 3c fc ff b8 39 a3 50 e4 3b b9 4e 75 3d
       0.030438598 0.00035285938 0.0069676205 0.05988953
0002c0 00 00 00 80 00 00 00 80 00 00 00 00 00 00 00 00
       -0.0 -0.0 0.0 0.0
0002d0 00 b9 46 3d 00 00 00 80 89 4e 22 3d 22 e9 13 3c
       0.048516273 -0.0 0.03962568 0.009027751
0002e0 00 00 00 80 00 00 00 80 00 00 00 80 00 00 00 00
       -0.0 -0.0 -0.0 0.0
0002f0 88 db a8 bc 00 00 00 00 00 00 00 80 c0 73 b7 3c
       -0.020612493 0.0 -0.0 0.022394061
000300 1f 85 42 bd 00 00 00 80 00 00 00 80 6c 3a 8a bd
       -0.047490235 -0.0 -0.0 -0.06749424
000310 3b e2 5d bc 8e 72 44 3c 00 00 00 00 00 00 00 80
       -0.013542707 0.011990203 0.0 -0.0
000320 f4 ad 71 3c 00 00 00 80 00 00 00 80 23 3e 81 bc
       0.014750946 -0.0 -0.0 -0.0157767
000330 00 00 00 80 00 00 00 00 fa d5 d5 bc b5 ef 98 bc
       -0.0 0.0 -0.026103009 -0.018668989
000340 00 00 00 80 23 2f 55 bd 00 00 00 80 00 00 00 80
       -0.0 -0.052046906 -0.0 -0.0
000350 70 55 82 bd eb c7 2b 3c 00 00 00 80 bc 2a 1e bd
       -0.06363952 0.010484676 -0.0 -0.038614973
000360 50 ab a2 bc 00 00 00 80 00 00 00 00 00 00 00 80
       -0.019857079 -0.0 0.0 -0.0
000370 c7 e2 49 bd 00 00 00 80 00 00 00 80 4c 80 3e bc
       -0.049288537 -0.0 -0.0 -0.011627268
000380 96 2f ae bc 00 00 00 80 00 00 00 80 00 00 00 80
       -0.021262925 -0.0 -0.0 -0.0
000390 00 00 00 00 48 1f 18 bc 00 00 00 80 00 00 00 80
       0.0 -0.009284802 -0.0 -0.0
0003a0 76 9d b8 bc 97 51 22 bb 00 00 00 80 00 00 00 00
       -0.02253602 -0.002476787 -0.0 0.0
0003b0 00 00 00 80 e6 6d a1 bc 00 00 00 80 cc c9 41 bd
       -0.0 -0.019705724 -0.0 -0.04731159
0003c0 00 00 00 80 1c e6 7d bc 00 00 00 00 00 00 00 00
       -0.0 -0.015496757 0.0 0.0
0003d0 00 00 00 80 46 a8 33 bd 00 00 00 00 00 00 00 00
       -0.0 -0.04386165 0.0 0.0
0003e0 00 00 00 80 00 00 00 80 31 98 c5 bc 00 00 00 80
       -0.0 -0.0 -0.024120422 -0.0
0003f0 00 00 00 80 39 f7 ac bc 00 00 00 80 69 8b bc bd
       -0.0 -0.021113979 -0.0 -0.09206278
