ode_net/code/output/2023-3-8(5;57)_chalmers_350genes_150samples_earlyT_0bimod_1initvar_150epochs/interm_models/trained_model_epoch_30_sums.pt (torch, 170591 bytes, 4 tensors)

bias f4 [40]
00000000: dee6 cc3c 175f 2f3d 8cf4 30bd e9fc 813c
00000010: 322b 80bd 95ff 8abb 2541 94bc d3ac 04bc
00000020: cc47 2a3d 860b ed3c b758 a53c f3ed 11bd
00000030: e7ad 21bc d4cd 3b3d 4ac8 f8bb bed7 843d
00000040: 72bf 013d 5871 bbbc bc31 d6bc ca14 32bd
00000050: 1ec1 cfbc ef95 0ebc 8ba1 a43c a6f7 973c
00000060: a483 a8bc f3a2 203d f09a 9ebc dc0a 3abd
00000070: e059 1d3c 4699 f63b ce8b e4bc f7a5 f0bc
00000080: 9d3f d9bb b34b 47bd 0cc1 9bbd 58f9 4db9
00000090: a904 023d e0b1 99bc 2cd4 a23c 1e39 4ebd
0.02501243 0.042815294 -0.043201968 0.015867667 -0.06258239 -0.0042418935 -0.01809747 -0.008097845
0.041572377 0.028936159 0.020183904 -0.035627317 -0.009868122 0.04585059 -0.0075922357 0.06486462
0.031676717 -0.022881195 -0.026146762 -0.043476857 -0.02536064 -0.008702739 0.020096561 0.018550705
-0.020570584 0.0392179 -0.01936099 -0.045420513 0.009603947 0.007525596 -0.027898695 -0.029376013
-0.0066298977 -0.048656177 -0.0760518 -0.00019643211 0.031742726 -0.018761575 0.019876562 -0.05034744

weight_orig f4 [40, 350]
00000000: ff21 33bb 4e11 a63b bd83 733d ce8d e03d
00000010: 8006 3d3d a334 d3bd 0fd3 9b3d d43c 903d
00000020: 26d8 0abc 3989 413d 03b0 053b fef0 923d
00000030: 8ed6 603d c6df 7bbb 384e 223d ef90 183d
00000040: 618e 883d 7be0 bcbd f5df 1a3e 2afb 653d
00000050: 9098 d53d 344a d33d fa15 e33e 576d 173e
00000060: a79a cabd a4b1 483d da5a ab3d 6ea0 41bd
00000070: 4ef9 2b3d 2f2f de3d 6a5a 07be 1b27 79bd
00000080: 905e 823d ce3f a13d fee2 583d 32b7 82bb
00000090: 0750 bdbb 51f6 cf3d a8f2 6fbe 2b3c 183d
000000a0: e701 013e 1f21 123e 5dfe 713d 0fe2 c33d
000000b0: 0cda 123e c822 0c3c d978 5b3b 90df 16bd
000000c0: fcd6 c6ba 0da4 10bb 404d a83d c382 453d
000000d0: a880 323e 32af 933d ff8f 4f3b 4c16 513b
000000e0: 885c 913b 506f 11bd 123a 92bc 35aa 9b3d
000000f0: e219 7d3c b3cb bf3d 22f2 443e 59f3 a73b
00000100: 4088 ba3b 2e4f 98be 21dd 7ebd 93b4 4f3a
00000110: 3501 29bd e207 9d3d 9ed7 8dba d8e1 183b
00000120: b90c 4ebc b304 143c 70fe c5bd 103c c1bb
00000130: 79e3 a3bb 0950 013d 2a66 3539 d9a6 09bd
00000140: a3e5 c5ba fd1d 9b3d c69c 1a3e 16aa cabd
00000150: a586 82bd bc63 89bd 04c7 efbc d475 94be
00000160: 837b 44bd 32b2 a9ba 66fe 10be 8a98 c03a
00000170: fb8a b93c 2bce cd3b 940f 90bb 9851 9dbc
00000180: 17fa 18be 54fd c93c 3e03 f93c 780b 44bc
00000190: fab1 ecb9 be7d a53a 1c61 5a3d d5cc 4fbb
000001a0: 96cc 1e3d 32dc f5bc b7dc 22bd f98f d33a
000001b0: fcc2 8eba 899d 94bd 017a 23bc 0246 beba
000001c0: 6bfc 4e39 c5ec 3d39 f256 0dbb 3ca5 b73c
000001d0: 2fbd 9c3c 4ac7 4cbc b122 893c df20 e43c
000001e0: 31e4 d7bc 5a91 90bb 3850 16bb 9c6b 66bd
000001f0: 70f1 093d 4bd8 76bd c4b6 8f3d 8e80 1eb9
00000200: 55a0 98bc d750 fdba 39f4 58bb f949 8ebc
00000210: 8b35 e0bc 4e75 b6ba 574b ac3c a2f7 8ebd
00000220: d418 3fbd 231c 85bb c919 ba3c 8d3f d0bb
00000230: 2ed0 a13c 3837 99bd 3628 0cbc 90dd 25bd
00000240: 89b4 e6ba 7c0f a1bb 4278 c53b 90fd 763a
00000250: 6b19 093b 7ef6 0dbc 759e 2dbd 88bb 41ba
00000260: 7a8c 34bd 7e19 95bc bed5 dbbc af04 63bc
00000270: 7f33 5dbc f340 a7ba a7c4 503c 17c2 67ba
00000280: 1c3f e8bc b233 a6bb 16c7 2cbb 131a eab9
00000290: 6ce3 4cba 3662 deb9 dbc5 43ba 720a 52bc
000002a0: 55ac fcbb 5046 5cbb 3db0 0cba ff39 2abc
000002b0: d56c f1bb 7e9d 0dbb 88b3 10bc 0fa4 c8bc
000002c0: 6272 ff3c c7a9 e23a 532c 85bb 555c be3c
000002d0: 8b7b 2f3b d6c7 253b 9a33 e33c c855 283d
000002e0: c4e9 3a3b ab69 973b 155a dc3b e114 dd3b
000002f0: ab53 1b3d 1abb f43c 49ab 8bbc f7f7 283d
00000300: a639 8a3c 98e3 b0bb 9f4a 3c3c 847e 0b3d
00000310: 37a7 be3b 2464 96bc cc8d 08bb c2a9 a23c
00000320: a8b8 48bd 56e8 113d 56c3 f0bc fc80 dfbc
00000330: 476f 09bc d7af 34bb 0835 853c c68a bd3c
00000340: 5673 f13c 493f 75bd b5ae 603c 1ae6 3f3d
00000350: eeeb 55bd 7530 9b3d 5c00 24bb def9 21b9
00000360: 5844 bc3b 5829 c73c dbc8 ad3c b864 9dbb
00000370: d287 a23c 6161 053c ae90 183a 0fe0 1d3b
00000380: 2732 b6bd ec35 bd3b c3d5 6b3b cd1c 153d
00000390: ad1f 0a3d 5bf8 d6bc f626 71bb 2730 6abc
000003a0: 5eed 093b 036d e1bc 7ba9 9fbb ac05 d7ba
000003b0: 7088 193d 9136 87bb a2bb f8bb c05e 15ba
000003c0: 03ec 173c 2893 9f3b 7748 75bb 2611 193b
000003d0: d991 5d3d bda4 8b3c 5eb3 11bb f517 adbd
000003e0: 8d3f 9d3b 67c4 30bd be57 953d 7836 9e3c
000003f0: c461 dfbb 0c05 a63d 2bec abbb e11f 65bd
-0.0027333496 0.005067981 0.059451807 0.10964547 0.046148777 -0.10312774 0.076086156 0.07042852
-0.008474385 0.047250006 0.00203991 0.07174872 0.054892115 -0.003843294 0.039625376 0.037247594
0.066677816 -0.09222504 0.15124495 0.05614773 0.104294896 0.103168875 0.44352704 0.14787804
-0.09892779 0.048997536 0.08366938 -0.04727214 0.041985802 0.10848843 -0.13218084 -0.06082831
0.063656926 0.07873498 0.05295085 -0.0039891237 -0.0057773623 0.10154403 -0.2343241 0.037166756
0.12598382 0.14270447 0.05908047 0.09564602 0.14340991 0.008553214 0.003348878 -0.0368343
-0.0015170272 -0.0022070438 0.08217859 0.048220407 0.17431891 0.0721115 0.0031671522 0.003190416
0.0044360794 -0.035506546 -0.017849956 0.07600824 0.0154480655 0.093650244 0.19232991 0.005125445
0.005692512 -0.2974791 -0.062222604 0.0007923331 -0.041260917 0.07667519 -0.0010821705 0.0023327973
-0.0125762755 0.0090343235 -0.09667671 -0.0058970526 -0.005001482 0.031570468 0.00017299564 -0.033606384
-0.0015098344 0.07574079 0.15098867 -0.098957226 -0.06373338 -0.06708476 -0.029269703 -0.28996146
-0.047969352 -0.0012946783 -0.14159545 0.0014693898 0.022649279 0.0062806807 -0.0043963883 -0.019203946
-0.14939152 0.02465693 0.030397054 -0.011965625 -0.0004514603 0.0012625975 0.053315267 -0.0031707783
0.038769327 -0.030012224 -0.03976127 0.001614093 -0.001089185 -0.0725661 -0.0099778185 -0.0014516714
0.00019739724 0.00018112648 -0.0021566716 0.022417657 0.019133179 -0.012498686 0.016740175 0.027847705
-0.026353927 -0.0044118585 -0.0022935998 -0.056254968 0.03367752 -0.060264867 0.07017282 -0.00015115945
-0.01863114 -0.001932646 -0.0033104552 -0.017369257 -0.027369281 -0.0013920458 0.021032019 -0.06980826
-0.046654537 -0.004062192 0.022717373 -0.006355232 0.019752588 -0.07481235 -0.008554509 -0.0404945
-0.0017601411 -0.004915176 0.0060262987 0.0009421939 0.0020919691 -0.008664725 -0.042387445 -0.000739031
-0.04407928 -0.018200632 -0.026835319 -0.013856097 -0.013501047 -0.0012760445 0.012742198 -0.00088408723
-0.028350405 -0.0050720805 -0.0026363782 -0.00044651385 -0.0007815871 -0.00042416312 -0.00074681424 -0.012819873
-0.0077109733 -0.0033611245 -0.0005366838 -0.010389804 -0.00736771 -0.0021608765 -0.008831866 -0.024492292
0.031182472 0.0017293029 -0.0040641217 0.023237387 0.0026776518 0.0025296113 0.027734566 0.041097432
0.0028520683 0.004620751 0.006724606 0.0067468737 0.03792159 0.029874373 -0.017049449 0.041252103
0.016873192 -0.005398225 0.0114924 0.0340562 0.0058182734 -0.018358298 -0.002083647 0.019856337
-0.049004227 0.035621963 -0.029390018 -0.027283184 -0.008388347 -0.002757063 0.016260639 0.023137461
0.029473942 -0.059874807 0.013713528 0.0468503 -0.052226953 0.07577602 -0.0025024628 -0.0001544724
0.005745452 0.024311706 0.02121394 -0.0048032664 0.019840155 0.008140893 0.0005819899 0.0024089848
-0.088962846 0.0057742503 0.0035985566 0.03640442 0.033721615 -0.026241472 -0.0036796904 -0.014293707
0.0021046023 -0.027517801 -0.0048724986 -0.0016404889 0.037483633 -0.004126378 -0.007590727 -0.0005698018
0.009272578 0.0048698373 -0.0037427226 0.0023356169 0.05409417 0.017046327 -0.0022232155 -0.08451835
0.0047988356 -0.043156054 0.07292126 0.019313082 -0.0068170745 0.08106431 -0.0052466593 -0.055938605

weight_mask f4 [40, 350]
00000000: 0000 0000 0000 0000 0000 803f 0000 803f
00000010: 0000 803f 0000 803f 0000 803f 0000 803f
00000020: 0000 0000 0000 803f 0000 0000 0000 803f
00000030: 0000 803f 0000 0000 0000 803f 0000 803f
00000040: 0000 803f 0000 803f 0000 803f 0000 803f
00000050: 0000 803f 0000 803f 0000 803f 0000 803f
00000060: 0000 803f 0000 803f 0000 803f 0000 803f
00000070: 0000 803f 0000 803f 0000 803f 0000 803f
00000080: 0000 803f 0000 803f 0000 803f 0000 0000
00000090: 0000 0000 0000 803f 0000 803f 0000 803f
000000a0: 0000 803f 0000 803f 0000 803f 0000 803f
000000b0: 0000 803f 0000 0000 0000 0000 0000 803f
000000c0: 0000 0000 0000 0000 0000 803f 0000 803f
000000d0: 0000 803f 0000 803f 0000 0000 0000 0000
000000e0: 0000 0000 0000 803f 0000 803f 0000 803f
000000f0: 0000 803f 0000 803f 0000 803f 0000 0000
00000100: 0000 0000 0000 803f 0000 803f 0000 0000
00000110: 0000 803f 0000 803f 0000 0000 0000 0000
00000120: 0000 0000 0000 0000 0000 803f 0000 0000
00000130: 0000 0000 0000 803f 0000 0000 0000 803f
00000140: 0000 0000 0000 803f 0000 803f 0000 803f
00000150: 0000 803f 0000 803f 0000 803f 0000 803f
00000160: 0000 803f 0000 0000 0000 803f 0000 0000
00000170: 0000 803f 0000 0000 0000 0000 0000 803f
00000180: 0000 803f 0000 803f 0000 803f 0000 803f
00000190: 0000 0000 0000 0000 0000 803f 0000 0000
000001a0: 0000 803f 0000 803f 0000 803f 0000 0000
000001b0: 0000 0000 0000 803f 0000 0000 0000 0000
000001c0: 0000 0000 0000 0000 0000 0000 0000 803f
000001d0: 0000 803f 0000 803f 0000 803f 0000 803f
000001e0: 0000 803f 0000 0000 0000 0000 0000 803f
000001f0: 0000 803f 0000 803f 0000 803f 0000 0000
00000200: 0000 803f 0000 0000 0000 0000 0000 803f
00000210: 0000 803f 0000 0000 0000 803f 0000 803f
00000220: 0000 803f 0000 0000 0000 803f 0000 0000
00000230: 0000 803f 0000 803f 0000 0000 0000 803f
00000240: 0000 0000 0000 0000 0000 0000 0000 0000
00000250: 0000 0000 0000 0000 0000 803f 0000 0000
00000260: 0000 803f 0000 803f 0000 803f 0000 803f
00000270: 0000 803f 0000 0000 0000 803f 0000 0000
00000280: 0000 803f 0000 0000 0000 0000 0000 0000
00000290: 0000 0000 0000 0000 0000 0000 0000 803f
000002a0: 0000 0000 0000 0000 0000 0000 0000 803f
000002b0: 0000 0000 0000 0000 0000 0000 0000 803f
000002c0: 0000 803f 0000 0000 0000 0000 0000 803f
000002d0: 0000 0000 0000 0000 0000 803f 0000 803f
000002e0: 0000 0000 0000 0000 0000 0000 0000 0000
000002f0: 0000 803f 0000 803f 0000 803f 0000 803f
00000300: 0000 803f 0000 0000 0000 803f 0000 803f
00000310: 0000 0000 0000 803f 0000 0000 0000 803f
00000320: 0000 803f 0000 803f 0000 803f 0000 803f
00000330: 0000 0000 0000 0000 0000 803f 0000 803f
00000340: 0000 803f 0000 803f 0000 803f 0000 803f
00000350: 0000 803f 0000 803f 0000 0000 0000 0000
00000360: 0000 0000 0000 803f 0000 803f 0000 0000
00000370: 0000 803f 0000 0000 0000 0000 0000 0000
00000380: 0000 803f 0000 0000 0000 0000 0000 803f
00000390: 0000 803f 0000 803f 0000 0000 0000 803f
000003a0: 0000 0000 0000 803f 0000 0000 0000 0000
000003b0: 0000 803f 0000 0000 0000 0000 0000 0000
000003c0: 0000 0000 0000 0000 0000 0000 0000 0000
000003d0: 0000 803f 0000 803f 0000 0000 0000 803f
000003e0: 0000 0000 0000 803f 0000 803f 0000 803f
000003f0: 0000 0000 0000 803f 0000 0000 0000 803f
0.0 0.0 1.0 1.0 1.0 1.0 1.0 1.0
0.0 1.0 0.0 1.0 1.0 0.0 1.0 1.0
1.0 1.0 1.0 1.0 1.0 1.0 1.0 1.0
1.0 1.0 1.0 1.0 1.0 1.0 1.0 1.0
1.0 1.0 1.0 0.0 0.0 1.0 1.0 1.0
1.0 1.0 1.0 1.0 1.0 0.0 0.0 1.0
0.0 0.0 1.0 1.0 1.0 1.0 0.0 0.0
0.0 1.0 1.0 1.0 1.0 1.0 1.0 0.0
0.0 1.0 1.0 0.0 1.0 1.0 0.0 0.0
0.0 0.0 1.0 0.0 0.0 1.0 0.0 1.0
0.0 1.0 1.0 1.0 1.0 1.0 1.0 1.0
1.0 0.0 1.0 0.0 1.0 0.0 0.0 1.0
1.0 1.0 1.0 1.0 0.0 0.0 1.0 0.0
1.0 1.0 1.0 0.0 0.0 1.0 0.0 0.0
0.0 0.0 0.0 1.0 1.0 1.0 1.0 1.0
1.0 0.0 0.0 1.0 1.0 1.0 1.0 0.0
1.0 0.0 0.0 1.0 1.0 0.0 1.0 1.0
1.0 0.0 1.0 0.0 1.0 1.0 0.0 1.0
0.0 0.0 0.0 0.0 0.0 0.0 1.0 0.0
1.0 1.0 1.0 1.0 1.0 0.0 1.0 0.0
1.0 0.0 0.0 0.0 0.0 0.0 0.0 1.0
0.0 0.0 0.0 1.0 0.0 0.0 0.0 1.0
1.0 0.0 0.0 1.0 0.0 0.0 1.0 1.0
0.0 0.0 0.0 0.0 1.0 1.0 1.0 1.0
1.0 0.0 1.0 1.0 0.0 1.0 0.0 1.0
1.0 1.0 1.0 1.0 0.0 0.0 1.0 1.0
1.0 1.0 1.0 1.0 1.0 1.0 0.0 0.0
0.0 1.0 1.0 0.0 1.0 0.0 0.0 0.0
1.0 0.0 0.0 1.0 1.0 1.0 0.0 1.0
0.0 1.0 0.0 0.0 1.0 0.0 0.0 0.0
0.0 0.0 0.0 0.0 1.0 1.0 0.0 1.0
0.0 1.0 1.0 1.0 0.0 1.0 0.0 1.0

weight f4 [40, 350]
00000000: 0000 0080 0000 0000 bd83 733d ce8d e03d
00000010: 8006 3d3d a334 d3bd 0fd3 9b3d d43c 903d
00000020: 0000 0080 3989 413d 0000 0000 fef0 923d
00000030: 8ed6 603d 0000 0080 384e 223d ef90 183d
00000040: 618e 883d 7be0 bcbd f5df 1a3e 2afb 653d
00000050: 9098 d53d 344a d33d fa15 e33e 576d 173e
00000060: a79a cabd a4b1 483d da5a ab3d 6ea0 41bd
00000070: 4ef9 2b3d 2f2f de3d 6a5a 07be 1b27 79bd
00000080: 905e 823d ce3f a13d fee2 583d 0000 0080
00000090: 0000 0080 51f6 cf3d a8f2 6fbe 2b3c 183d
000000a0: e701 013e 1f21 123e 5dfe 713d 0fe2 c33d
000000b0: 0cda 123e 0000 0000 0000 0000 90df 16bd
000000c0: 0000 0080 0000 0080 404d a83d c382 453d
000000d0: a880 323e 32af 933d 0000 0000 0000 0000
000000e0: 0000 0000 506f 11bd 123a 92bc 35aa 9b3d
000000f0: e219 7d3c b3cb bf3d 22f2 443e 0000 0000
00000100: 0000 0000 2e4f 98be 21dd 7ebd 0000 0000
00000110: 3501 29bd e207 9d3d 0000 0080 0000 0000
00000120: 0000 0080 0000 0000 70fe c5bd 0000 0080
00000130: 0000 0080 0950 013d 0000 0000 d9a6 09bd
00000140: 0000 0080 fd1d 9b3d c69c 1a3e 16aa cabd
00000150: a586 82bd bc63 89bd 04c7 efbc d475 94be
00000160: 837b 44bd 0000 0080 66fe 10be 0000 0000
00000170: fb8a b93c 0000 0000 0000 0080 9851 9dbc
00000180: 17fa 18be 54fd c93c 3e03 f93c 780b 44bc
00000190: 0000 0080 0000 0000 1c61 5a3d 0000 0080
000001a0: 96cc 1e3d 32dc f5bc b7dc 22bd 0000 0000
000001b0: 0000 0080 899d 94bd 0000 0080 0000 0080
000001c0: 0000 0000 0000 0000 0000 0080 3ca5 b73c
000001d0: 2fbd 9c3c 4ac7 4cbc b122 893c df20 e43c
000001e0: 31e4 d7bc 0000 0080 0000 0080 9c6b 66bd
000001f0: 70f1 093d 4bd8 76bd c4b6 8f3d 0000 0080
00000200: 55a0 98bc 0000 0080 0000 0080 f949 8ebc
00000210: 8b35 e0bc 0000 0080 574b ac3c a2f7 8ebd
00000220: d418 3fbd 0000 0080 c919 ba3c 0000 0080
00000230: 2ed0 a13c 3837 99bd 0000 0080 90dd 25bd
00000240: 0000 0080 0000 0080 0000 0000 0000 0000
00000250: 0000 0000 0000 0080 759e 2dbd 0000 0080
00000260: 7a8c 34bd 7e19 95bc bed5 dbbc af04 63bc
00000270: 7f33 5dbc 0000 0080 a7c4 503c 0000 0080
00000280: 1c3f e8bc 0000 0080 0000 0080 0000 0080
00000290: 0000 0080 0000 0080 0000 0080 720a 52bc
000002a0: 0000 0080 0000 0080 0000 0080 ff39 2abc
000002b0: 0000 0080 0000 0080 0000 0080 0fa4 c8bc
000002c0: 6272 ff3c 0000 0000 0000 0080 555c be3c
000002d0: 0000 0000 0000 0000 9a33 e33c c855 283d
000002e0: 0000 0000 0000 0000 0000 0000 0000 0000
000002f0: ab53 1b3d 1abb f43c 49ab 8bbc f7f7 283d
00000300: a639 8a3c 0000 0080 9f4a 3c3c 847e 0b3d
00000310: 0000 0000 2464 96bc 0000 0080 c2a9 a23c
00000320: a8b8 48bd 56e8 113d 56c3 f0bc fc80 dfbc
00000330: 0000 0080 0000 0080 0835 853c c68a bd3c
00000340: 5673 f13c 493f 75bd b5ae 603c 1ae6 3f3d
00000350: eeeb 55bd 7530 9b3d 0000 0080 0000 0080
00000360: 0000 0000 5829 c73c dbc8 ad3c 0000 0080
00000370: d287 a23c 0000 0000 0000 0000 0000 0000
00000380: 2732 b6bd 0000 0000 0000 0000 cd1c 153d
00000390: ad1f 0a3d 5bf8 d6bc 0000 0080 2730 6abc
000003a0: 0000 0000 036d e1bc 0000 0080 0000 0080
000003b0: 7088 193d 0000 0080 0000 0080 0000 0080
000003c0: 0000 0000 0000 0000 0000 0080 0000 0000
000003d0: d991 5d3d bda4 8b3c 0000 0080 f517 adbd
000003e0: 0000 0000 67c4 30bd be57 953d 7836 9e3c
000003f0: 0000 0080 0c05 a63d 0000 0080 e11f 65bd
-0.0 0.0 0.059451807 0.10964547 0.046148777 -0.10312774 0.076086156 0.07042852
-0.0 0.047250006 0.0 0.07174872 0.054892115 -0.0 0.039625376 0.037247594
0.066677816 -0.09222504 0.15124495 0.05614773 0.104294896 0.103168875 0.44352704 0.14787804
-0.09892779 0.048997536 0.08366938 -0.04727214 0.041985802 0.10848843 -0.13218084 -0.06082831
0.063656926 0.07873498 0.05295085 -0.0 -0.0 0.10154403 -0.2343241 0.037166756
0.12598382 0.14270447 0.05908047 0.09564602 0.14340991 0.0 0.0 -0.0368343
-0.0 -0.0 0.08217859 0.048220407 0.17431891 0.0721115 0.0 0.0
0.0 -0.035506546 -0.017849956 0.07600824 0.0154480655 0.093650244 0.19232991 0.0
0.0 -0.2974791 -0.062222604 0.0 -0.041260917 0.07667519 -0.0 0.0
-0.0 0.0 -0.09667671 -0.0 -0.0 0.031570468 0.0 -0.033606384
-0.0 0.07574079 0.15098867 -0.098957226 -0.06373338 -0.06708476 -0.029269703 -0.28996146
-0.047969352 -0.0 -0.14159545 0.0 0.022649279 0.0 -0.0 -0.019203946
-0.14939152 0.02465693 0.030397054 -0.011965625 -0.0 0.0 0.053315267 -0.0
0.038769327 -0.030012224 -0.03976127 0.0 -0.0 -0.0725661 -0.0 -0.0
0.0 0.0 -0.0 0.022417657 0.019133179 -0.012498686 0.016740175 0.027847705
-0.026353927 -0.0 -0.0 -0.056254968 0.03367752 -0.060264867 0.07017282 -0.0
-0.01863114 -0.0 -0.0 -0.017369257 -0.027369281 -0.0 0.021032019 -0.06980826
-0.046654537 -0.0 0.022717373 -0.0 0.019752588 -0.07481235 -0.0 -0.0404945
-0.0 -0.0 0.0 0.0 0.0 -0.0 -0.042387445 -0.0
-0.04407928 -0.018200632 -0.026835319 -0.013856097 -0.013501047 -0.0 0.012742198 -0.0
-0.028350405 -0.0 -0.0 -0.0 -0.0 -0.0 -0.0 -0.012819873
-0.0 -0.0 -0.0 -0.010389804 -0.0 -0.0 -0.0 -0.024492292
0.031182472 0.0 -0.0 0.023237387 0.0 0.0 0.027734566 0.041097432
0.0 0.0 0.0 0.0 0.03792159 0.029874373 -0.017049449 0.041252103
0.016873192 -0.0 0.0114924 0.0340562 0.0 -0.018358298 -0.0 0.019856337
-0.049004227 0.035621963 -0.029390018 -0.027283184 -0.0 -0.0 0.016260639 0.023137461
0.029473942 -0.059874807 0.013713528 0.0468503 -0.052226953 0.07577602 -0.0 -0.0
0.0 0.024311706 0.02121394 -0.0 0.019840155 0.0 0.0 0.0
-0.088962846 0.0 0.0 0.03640442 0.033721615 -0.026241472 -0.0 -0.014293707
0.0 -0.027517801 -0.0 -0.0 0.037483633 -0.0 -0.0 -0.0
0.0 0.0 -0.0 0.0 0.05409417 0.017046327 -0.0 -0.08451835
0.0 -0.043156054 0.07292126 0.019313082 -0.0 0.08106431 -0.0 -0.055938605
