ode_net/code/output/2023-2-28(22;35)_chalmers_350genes_150samples_earlyT_0bimod_1initvar_100epochs/interm_models/trained_model_epoch_70_prods.pt (torch, 170719 bytes, 4 tensors)

bias f4 [40]
-0.020936042 -0.085969605 -0.10865004 -0.10731615 -0.059630986 -0.015333185 -0.09254137 -0.09242846
-0.04244497 -0.08717593 -0.07718132 -0.057708327 -0.10657814 -0.0757878 -0.08708044 -0.04001576
-0.08870257 -0.022750309 -0.11986517 -0.10886631 -0.050463006 -0.1247371 -0.038692225 -0.0858739
-0.042304315 -0.03910438 -0.031173965 -0.117518105 -0.10252586 -0.12410469 -0.12148895 -0.09265542
-0.072282374 -0.0991987 -0.06601621 -0.08587416 -0.037788298 -0.12102893 -0.08938678 -0.015524369
00000000: 1082 abbc d510 b0bd ea83 debd 92c8 dbbd
00000010: 9f3f 74bd 0a38 7bbc 5486 bdbd 224b bdbd
00000020: c7da 2dbd 4b89 b2bd 3d11 9ebd 915f 6cbd
00000030: a445 dabd a236 9bbd 3b57 b2bd 91e7 23bd
00000040: b1a9 b5bd db5e babc df7b f5bd 4df5 debd
00000050: 4cb2 4ebd 2a76 ffbd bd7b 1ebd a8de afbd
00000060: 4a47 2dbd ea2b 20bd 8b60 ffbc 55ad f0bd
00000070: 14f9 d1bd 9a2a febd 33cf f8bd 20c2 bdbd
00000080: c808 94bd b028 cbbd 8233 87bd cbde afbd
00000090: e7c7 1abd 04de f7bd 6b10 b7bd ec59 7ebc

weight_orig f4 [40, 350]
0.36017147 0.0047940756 -0.00050708174 -0.0067608366 -0.024772901 -0.19596277 0.34712076 -0.022338396
0.010751242 -0.013268998 0.034414247 0.0058236327 -0.004757991 -0.06200914 0.09335638 -0.13749295
0.09488338 0.05108211 0.29162395 0.09001974 0.46405748 -0.020124426 0.37679487 -0.007687909
-0.35883388 -0.06628251 -0.0049519655 -0.13496327 0.15073445 0.30812976 0.038644176 -0.06198799
0.013340228 -0.0016560531 -0.05068977 -0.0037289923 0.003960268 -0.09440946 0.5373194 -0.09223303
0.3218805 -0.0632634 0.009860857 0.22380628 0.23509708 0.01023486 0.0018399634 0.12570526
-0.0787829 -0.0598692 -0.09599236 0.0220078 -0.22550341 0.06337749 0.05244791 -0.0030582144
0.030441575 0.24750793 0.18419689 -0.21272223 0.09912468 -0.07397755 -0.11815138 -0.0010382918
-0.044718627 0.1450173 -0.1523577 0.03723384 -0.0030438185 0.15418161 0.23900056 -0.14201602
-0.081086226 -0.09046158 -0.10384399 -0.034119975 0.04245718 -0.07495537 -0.057730876 0.087524444
-0.046421394 -0.11230568 -0.062608816 0.08991736 -0.045921408 0.17430183 0.06832995 -0.22452323
-0.018047065 -0.17846128 0.6381751 0.0010802618 -0.092224106 0.011520935 0.05664358 -0.008450079
0.25184113 0.030224659 -0.02646277 0.04802444 0.06315306 0.042469267 -0.058575775 0.020706719
-0.00038917054 0.00059650664 -0.13532141 0.031446934 0.020073002 -0.036869295 0.019554721 0.041498218
0.0020480158 -0.09720192 0.014694615 -0.05943003 -0.04793203 0.004714048 0.0066792704 -0.05077845
0.023786424 0.034552723 0.027731845 0.0074168737 -0.032940086 -0.13263372 -0.06444973 0.060857665
0.074135296 0.05127338 0.066267096 0.006203253 0.065792195 -0.058220938 -0.07507488 -0.008697886
0.05552129 -0.046584528 -0.058300536 0.037131324 -0.068675764 -0.10713475 -0.0016573963 -0.067250475
0.007243964 0.0059928894 0.0089180665 -0.019893931 0.066671915 0.05051312 0.034233816 0.040611714
-0.07933892 0.00023977555 -0.00040281744 0.01711364 -0.06272727 -0.035822168 -0.023753868 0.08519491
-0.0074734497 0.04776948 0.04077051 0.10334899 -0.0008395386 -0.027431643 -0.0010845825 0.041377477
-0.10871128 -0.0020776389 0.07535374 0.14937703 -0.032858256 0.06352811 0.12889045 -0.038475227
0.003930311 0.039774325 0.020483365 -0.0013187054 -0.001902777 0.0043917145 -0.05282052 0.0034370308
-0.089452006 0.0008860924 0.07940705 0.00041548433 -0.100954026 0.0054811738 0.02048874 0.09954669
-0.05800511 -0.024863927 0.0019098837 0.0004599447 0.10032004 0.057781212 0.027582664 0.11133857
0.0073851272 -0.115165226 -0.0015030456 0.08136939 -0.007853939 0.030734356 -0.13049231 0.020599427
0.053050827 0.0017461142 0.08004234 0.055880178 0.0010472556 -0.08473385 0.04507917 0.009218446
0.001729964 -0.06782299 -0.06431328 -0.040052235 -0.014076929 -0.03123166 -0.0058526313 -0.058269046
-0.07918505 -0.0042387126 -0.06710173 -0.11276083 0.0026337001 0.0019585602 -0.003675957 0.028169673
-0.06556129 -0.0042907335 0.004495403 -0.029365113 0.06919233 0.0009374753 -0.00036772908 0.017618187
0.024142884 0.012758468 -0.0037549122 -0.049986795 -0.16620193 -0.0022110452 -0.0016841065 -0.0037343379
-0.059830356 -0.09858847 -0.017922001 -0.049149558 0.0002986315 -0.07524558 0.0053808335 -0.048946675
00000000: 6568 b83e 9f17 9d3b aeed 04ba 028a ddbb
00000010: 8af0 cabc 77aa 48be d0b9 b13e 03ff b6bc
00000020: fa25 303c 3666 59bc f4f5 0c3d 2cd4 be3b
00000030: ece8 9bbb 4cfd 7dbd a131 bf3d f4ca 0cbe
00000040: 3852 c23d 793b 513d bc4f 953e 455c b83d
00000050: f198 ed3e fbdb a4bc 42eb c03e dbea fbbb
00000060: 13b9 b7be 20bf 87bd 1944 a2bb d033 0abe
00000070: 225a 1a3e 2fc3 9d3e 5b49 1e3d 1ee7 7dbd
00000080: f990 5a3c ec0f d9ba 14a0 4fbd 1c62 74bb
00000090: 23c5 813b bf59 c1bd c48d 093f ace4 bcbd
000000a0: 85cd a43e 3e90 81bd 6f8f 213c 792d 653e
000000b0: 4abd 703e 1db0 273c ed2a f13a e1b8 003e
000000c0: ee58 a1bd 6839 75bd a497 c4bd b449 b43c
000000d0: 5eea 66be 0fcc 813d 9fd3 563d 536c 48bb
000000e0: 9c60 f93c b872 7d3e 1c9e 3c3e dbd3 59be
000000f0: e101 cb3d 8b81 97bd 5af9 f1bd 4b17 88ba
00000100: e12a 37bd 6a7f 143e a803 1cbe 8382 183d
00000110: cd7a 47bb c9e1 1d3e 90bc 743e a66c 11be
00000120: 8910 a6bd ec43 b9bd 28ac d4bd 63c1 0bbd
00000130: 94e7 2d3d 3382 99bd 3677 6cbd 0440 b33d
00000140: 5c24 3ebd 8500 e6bd 0d39 80bd 9826 b83d
00000150: 1618 3cbd 2e7c 323e 93f0 8b3d 6be9 65be
00000160: 70d7 93bc 8ebe 36be 715f 233f 9297 8d3a
00000170: fedf bcbd 4ec2 3c3c 1903 683d 3372 0abc
00000180: 52f1 803e b499 f73c 73c8 d8bc 46b5 443d
00000190: 6456 813d 41f4 2d3d 27ed 6fbd 23a1 a93c
000001a0: 9609 ccb9 e25e 1c3a b291 0abe 80ce 003d
000001b0: 2370 a43c 4204 17bd 3931 a03c 09fa 293d
000001c0: 0138 063b cd11 c7bd afc1 703c e76c 73bd
000001d0: 6054 44bd 4d78 9a3b c8dd da3b 10fd 4fbd
000001e0: bfdb c23c 2887 0d3d e52d e33c 3f09 f33b
000001f0: 2fec 06bd 22d1 07be 38fe 83bd e345 793d
00000200: 3fd4 973d 0904 523d 0bb7 873d a844 cb3b
00000210: 0fbe 863d 1479 6ebd dcc0 99bd 9481 0ebc
00000220: 4b6a 633d 6bcf 3ebd 8bcc 6ebd 0417 183d
00000230: e1a5 8cbd 7769 dbbd fe3c d9ba 9eba 89bd
00000240: c65e ed3b 0060 c43b 151d 123c 99f8 a2bc
00000250: 498b 883d d8e6 4e3d c238 0c3d 7858 263d
00000260: 727c a2bd 426c 7b39 3e31 d3b9 e831 8c3c
00000270: 2877 80bd 44ba 12bd 7997 c2bc ab7a ae3d
00000280: d7e3 f4bb eea9 433d fafe 263d a3a8 d33d
00000290: 7b14 5cba 53b8 e0bc 8d28 8eba 6e7b 293d
000002a0: 05a4 debd ff28 08bb 1053 9a3d 4bf6 183e
000002b0: 6196 06bd 071b 823d dcfb 033e 3398 1dbd
000002c0: d7c9 803b 67ea 223d bbcc a73c 69d8 acba
000002d0: 9a66 f9ba 5fe8 8f3b 545a 58bd cf3f 613b
000002e0: 9d32 b7bd a848 683a 2aa0 a23d 5dd5 d939
000002f0: fcc0 cebd 6b9b b33b 01d8 a73c 23df cb3d
00000300: c496 6dbd 6faf cbbc 1055 fa3a bc24 f139
00000310: 9874 cd3d feab 6c3d 0af5 e13c 7a05 e43d
00000320: f0fe f13b bfdb ebbd d701 c5ba ffa4 a63d
00000330: cfad 00bc 9ec6 fb3c c79f 05be 21c0 a83c
00000340: d34b 593d dfdd e43a 3ded a33d 9de2 643d
00000350: 1144 893a f188 adbd f0a4 383d f708 173c
00000360: f6bf e23a c8e6 8abd aeb6 83bd d00d 24bd
00000370: eba2 66bc 8ad9 ffbc 6ec7 bfbb 86ab 6ebd
00000380: c62b a2bd e6e4 8abb a26c 89bd 26ef e6bd
00000390: 289a 2c3b 305b 003b 53e8 70bb 16c4 e63c
000003a0: ff44 86bd 4899 8cbb 2c4e 933b 1b8f f0bc
000003b0: b5b4 8d3d e7c0 753a c3cb c0b9 0454 903c
000003c0: 4cc7 c53c e508 513c f914 76bb f4be 4cbd
000003d0: d730 2abe 2fe7 10bb 3dbd dcba cbbb 74bb
000003e0: ad10 75bd c0e8 c9bd 29d1 92bc 0c51 49bd
000003f0: a491 9c39 5b1a 9abd b451 b03b 4f7c 48bd

weight_mask f4 [40, 350]
1.0 0.0 0.0 0.0 1.0 1.0 1.0 1.0
0.0 1.0 1.0 0.0 0.0 1.0 1.0 1.0
1.0 1.0 1.0 1.0 1.0 1.0 1.0 0.0
1.0 1.0 0.0 1.0 1.0 1.0 1.0 1.0
1.0 0.0 1.0 0.0 0.0 1.0 1.0 1.0
1.0 1.0 1.0 1.0 1.0 1.0 0.0 1.0
1.0 1.0 1.0 1.0 1.0 1.0 1.0 0.0
1.0 1.0 1.0 1.0 1.0 1.0 1.0 0.0
1.0 1.0 1.0 1.0 0.0 1.0 1.0 1.0
1.0 1.0 1.0 1.0 1.0 1.0 1.0 1.0
1.0 1.0 1.0 1.0 1.0 1.0 1.0 1.0
1.0 1.0 1.0 0.0 1.0 1.0 1.0 0.0
1.0 1.0 1.0 1.0 1.0 1.0 1.0 1.0
0.0 0.0 1.0 1.0 1.0 1.0 1.0 1.0
0.0 1.0 1.0 1.0 1.0 0.0 0.0 1.0
1.0 1.0 1.0 0.0 1.0 1.0 1.0 1.0
1.0 1.0 1.0 0.0 1.0 1.0 1.0 0.0
1.0 1.0 1.0 1.0 1.0 1.0 0.0 1.0
0.0 0.0 0.0 1.0 1.0 1.0 1.0 1.0
1.0 0.0 0.0 1.0 1.0 1.0 1.0 1.0
0.0 1.0 1.0 1.0 0.0 1.0 0.0 1.0
1.0 0.0 1.0 1.0 1.0 1.0 1.0 1.0
0.0 1.0 1.0 0.0 0.0 0.0 1.0 0.0
1.0 0.0 1.0 0.0 1.0 0.0 1.0 1.0
1.0 1.0 0.0 0.0 1.0 1.0 1.0 1.0
0.0 1.0 0.0 1.0 0.0 1.0 1.0 1.0
1.0 0.0 1.0 1.0 0.0 1.0 1.0 0.0
0.0 1.0 1.0 1.0 1.0 1.0 0.0 1.0
1.0 0.0 1.0 1.0 0.0 0.0 0.0 1.0
1.0 0.0 0.0 1.0 1.0 0.0 0.0 1.0
1.0 1.0 0.0 1.0 1.0 0.0 0.0 0.0
1.0 1.0 1.0 1.0 0.0 1.0 0.0 1.0
00000000: 0000 803f 0000 0000 0000 0000 0000 0000
00000010: 0000 803f 0000 803f 0000 803f 0000 803f
00000020: 0000 0000 0000 803f 0000 803f 0000 0000
00000030: 0000 0000 0000 803f 0000 803f 0000 803f
00000040: 0000 803f 0000 803f 0000 803f 0000 803f
00000050: 0000 803f 0000 803f 0000 803f 0000 0000
00000060: 0000 803f 0000 803f 0000 0000 0000 803f
00000070: 0000 803f 0000 803f 0000 803f 0000 803f
00000080: 0000 803f 0000 0000 0000 803f 0000 0000
00000090: 0000 0000 0000 803f 0000 803f 0000 803f
000000a0: 0000 803f 0000 803f 0000 803f 0000 803f
000000b0: 0000 803f 0000 803f 0000 0000 0000 803f
000000c0: 0000 803f 0000 803f 0000 803f 0000 803f
000000d0: 0000 803f 0000 803f 0000 803f 0000 0000
000000e0: 0000 803f 0000 803f 0000 803f 0000 803f
000000f0: 0000 803f 0000 803f 0000 803f 0000 0000
00000100: 0000 803f 0000 803f 0000 803f 0000 803f
00000110: 0000 0000 0000 803f 0000 803f 0000 803f
00000120: 0000 803f 0000 803f 0000 803f 0000 803f
00000130: 0000 803f 0000 803f 0000 803f 0000 803f
00000140: 0000 803f 0000 803f 0000 803f 0000 803f
00000150: 0000 803f 0000 803f 0000 803f 0000 803f
00000160: 0000 803f 0000 803f 0000 803f 0000 0000
00000170: 0000 803f 0000 803f 0000 803f 0000 0000
00000180: 0000 803f 0000 803f 0000 803f 0000 803f
00000190: 0000 803f 0000 803f 0000 803f 0000 803f
000001a0: 0000 0000 0000 0000 0000 803f 0000 803f
000001b0: 0000 803f 0000 803f 0000 803f 0000 803f
000001c0: 0000 0000 0000 803f 0000 803f 0000 803f
000001d0: 0000 803f 0000 0000 0000 0000 0000 803f
000001e0: 0000 803f 0000 803f 0000 803f 0000 0000
000001f0: 0000 803f 0000 803f 0000 803f 0000 803f
00000200: 0000 803f 0000 803f 0000 803f 0000 0000
00000210: 0000 803f 0000 803f 0000 803f 0000 0000
00000220: 0000 803f 0000 803f 0000 803f 0000 803f
00000230: 0000 803f 0000 803f 0000 0000 0000 803f
00000240: 0000 0000 0000 0000 0000 0000 0000 803f
00000250: 0000 803f 0000 803f 0000 803f 0000 803f
00000260: 0000 803f 0000 0000 0000 0000 0000 803f
00000270: 0000 803f 0000 803f 0000 803f 0000 803f
00000280: 0000 0000 0000 803f 0000 803f 0000 803f
00000290: 0000 0000 0000 803f 0000 0000 0000 803f
000002a0: 0000 803f 0000 0000 0000 803f 0000 803f
000002b0: 0000 803f 0000 803f 0000 803f 0000 803f
000002c0: 0000 0000 0000 803f 0000 803f 0000 0000
000002d0: 0000 0000 0000 0000 0000 803f 0000 0000
000002e0: 0000 803f 0000 0000 0000 803f 0000 0000
000002f0: 0000 803f 0000 0000 0000 803f 0000 803f
00000300: 0000 803f 0000 803f 0000 0000 0000 0000
00000310: 0000 803f 0000 803f 0000 803f 0000 803f
00000320: 0000 0000 0000 803f 0000 0000 0000 803f
00000330: 0000 0000 0000 803f 0000 803f 0000 803f
00000340: 0000 803f 0000 0000 0000 803f 0000 803f
00000350: 0000 0000 0000 803f 0000 803f 0000 0000
00000360: 0000 0000 0000 803f 0000 803f 0000 803f
00000370: 0000 803f 0000 803f 0000 0000 0000 803f
00000380: 0000 803f 0000 0000 0000 803f 0000 803f
00000390: 0000 0000 0000 0000 0000 0000 0000 803f
000003a0: 0000 803f 0000 0000 0000 0000 0000 803f
000003b0: 0000 803f 0000 0000 0000 0000 0000 803f
000003c0: 0000 803f 0000 803f 0000 0000 0000 803f
000003d0: 0000 803f 0000 0000 0000 0000 0000 0000
000003e0: 0000 803f 0000 803f 0000 803f 0000 803f
000003f0: 0000 0000 0000 803f 0000 0000 0000 803f

weight f4 [40, 350]
0.36017147 0.0 -0.0 -0.0 -0.024772901 -0.19596277 0.34712076 -0.022338396
0.0 -0.013268998 0.034414247 0.0 -0.0 -0.06200914 0.09335638 -0.13749295
0.09488338 0.05108211 0.29162395 0.09001974 0.46405748 -0.020124426 0.37679487 -0.0
-0.35883388 -0.06628251 -0.0 -0.13496327 0.15073445 0.30812976 0.038644176 -0.06198799
0.013340228 -0.0 -0.05068977 -0.0 0.0 -0.09440946 0.5373194 -0.09223303
0.3218805 -0.0632634 0.009860857 0.22380628 0.23509708 0.01023486 0.0 0.12570526
-0.0787829 -0.0598692 -0.09599236 0.0220078 -0.22550341 0.06337749 0.05244791 -0.0
0.030441575 0.24750793 0.18419689 -0.21272223 0.09912468 -0.07397755 -0.11815138 -0.0
-0.044718627 0.1450173 -0.1523577 0.03723384 -0.0 0.15418161 0.23900056 -0.14201602
-0.081086226 -0.09046158 -0.10384399 -0.034119975 0.04245718 -0.07495537 -0.057730876 0.087524444
-0.046421394 -0.11230568 -0.062608816 0.08991736 -0.045921408 0.17430183 0.06832995 -0.22452323
-0.018047065 -0.17846128 0.6381751 0.0 -0.092224106 0.011520935 0.05664358 -0.0
0.25184113 0.030224659 -0.02646277 0.04802444 0.06315306 0.042469267 -0.058575775 0.020706719
-0.0 0.0 -0.13532141 0.031446934 0.020073002 -0.036869295 0.019554721 0.041498218
0.0 -0.09720192 0.014694615 -0.05943003 -0.04793203 0.0 0.0 -0.05077845
0.023786424 0.034552723 0.027731845 0.0 -0.032940086 -0.13263372 -0.06444973 0.060857665
0.074135296 0.05127338 0.066267096 0.0 0.065792195 -0.058220938 -0.07507488 -0.0
0.05552129 -0.046584528 -0.058300536 0.037131324 -0.068675764 -0.10713475 -0.0 -0.067250475
0.0 0.0 0.0 -0.019893931 0.066671915 0.05051312 0.034233816 0.040611714
-0.07933892 0.0 -0.0 0.01711364 -0.06272727 -0.035822168 -0.023753868 0.08519491
-0.0 0.04776948 0.04077051 0.10334899 -0.0 -0.027431643 -0.0 0.041377477
-0.10871128 -0.0 0.07535374 0.14937703 -0.032858256 0.06352811 0.12889045 -0.038475227
0.0 0.039774325 0.020483365 -0.0 -0.0 0.0 -0.05282052 0.0
-0.089452006 0.0 0.07940705 0.0 -0.100954026 0.0 0.02048874 0.09954669
-0.05800511 -0.024863927 0.0 0.0 0.10032004 0.057781212 0.027582664 0.11133857
0.0 -0.115165226 -0.0 0.08136939 -0.0 0.030734356 -0.13049231 0.020599427
0.053050827 0.0 0.08004234 0.055880178 0.0 -0.08473385 0.04507917 0.0
0.0 -0.06782299 -0.06431328 -0.040052235 -0.014076929 -0.03123166 -0.0 -0.058269046
-0.07918505 -0.0 -0.06710173 -0.11276083 0.0 0.0 -0.0 0.028169673
-0.06556129 -0.0 0.0 -0.029365113 0.06919233 0.0 -0.0 0.017618187
0.024142884 0.012758468 -0.0 -0.049986795 -0.16620193 -0.0 -0.0 -0.0
-0.059830356 -0.09858847 -0.017922001 -0.049149558 0.0 -0.07524558 0.0 -0.048946675
00000000: 6568 b83e 0000 0000 0000 0080 0000 0080
00000010: 8af0 cabc 77aa 48be d0b9 b13e 03ff b6bc
00000020: 0000 0000 3666 59bc f4f5 0c3d 0000 0000
00000030: 0000 0080 4cfd 7dbd a131 bf3d f4ca 0cbe
00000040: 3852 c23d 793b 513d bc4f 953e 455c b83d
00000050: f198 ed3e fbdb a4bc 42eb c03e 0000 0080
00000060: 13b9 b7be 20bf 87bd 0000 0080 d033 0abe
00000070: 225a 1a3e 2fc3 9d3e 5b49 1e3d 1ee7 7dbd
00000080: f990 5a3c 0000 0080 14a0 4fbd 0000 0080
00000090: 0000 0000 bf59 c1bd c48d 093f ace4 bcbd
000000a0: 85cd a43e 3e90 81bd 6f8f 213c 792d 653e
000000b0: 4abd 703e 1db0 273c 0000 0000 e1b8 003e
000000c0: ee58 a1bd 6839 75bd a497 c4bd b449 b43c
000000d0: 5eea 66be 0fcc 813d 9fd3 563d 0000 0080
000000e0: 9c60 f93c b872 7d3e 1c9e 3c3e dbd3 59be
000000f0: e101 cb3d 8b81 97bd 5af9 f1bd 0000 0080
00000100: e12a 37bd 6a7f 143e a803 1cbe 8382 183d
00000110: 0000 0080 c9e1 1d3e 90bc 743e a66c 11be
00000120: 8910 a6bd ec43 b9bd 28ac d4bd 63c1 0bbd
00000130: 94e7 2d3d 3382 99bd 3677 6cbd 0440 b33d
00000140: 5c24 3ebd 8500 e6bd 0d39 80bd 9826 b83d
00000150: 1618 3cbd 2e7c 323e 93f0 8b3d 6be9 65be
00000160: 70d7 93bc 8ebe 36be 715f 233f 0000 0000
00000170: fedf bcbd 4ec2 3c3c 1903 683d 0000 0080
00000180: 52f1 803e b499 f73c 73c8 d8bc 46b5 443d
00000190: 6456 813d 41f4 2d3d 27ed 6fbd 23a1 a93c
000001a0: 0000 0080 0000 0000 b291 0abe 80ce 003d
000001b0: 2370 a43c 4204 17bd 3931 a03c 09fa 293d
000001c0: 0000 0000 cd11 c7bd afc1 703c e76c 73bd
000001d0: 6054 44bd 0000 0000 0000 0000 10fd 4fbd
000001e0: bfdb c23c 2887 0d3d e52d e33c 0000 0000
000001f0: 2fec 06bd 22d1 07be 38fe 83bd e345 793d
00000200: 3fd4 973d 0904 523d 0bb7 873d 0000 0000
00000210: 0fbe 863d 1479 6ebd dcc0 99bd 0000 0080
00000220: 4b6a 633d 6bcf 3ebd 8bcc 6ebd 0417 183d
00000230: e1a5 8cbd 7769 dbbd 0000 0080 9eba 89bd
00000240: 0000 0000 0000 0000 0000 0000 99f8 a2bc
00000250: 498b 883d d8e6 4e3d c238 0c3d 7858 263d
00000260: 727c a2bd 0000 0000 0000 0080 e831 8c3c
00000270: 2877 80bd 44ba 12bd 7997 c2bc ab7a ae3d
00000280: 0000 0080 eea9 433d fafe 263d a3a8 d33d
00000290: 0000 0080 53b8 e0bc 0000 0080 6e7b 293d
000002a0: 05a4 debd 0000 0080 1053 9a3d 4bf6 183e
000002b0: 6196 06bd 071b 823d dcfb 033e 3398 1dbd
000002c0: 0000 0000 67ea 223d bbcc a73c 0000 0080
000002d0: 0000 0080 0000 0000 545a 58bd 0000 0000
000002e0: 9d32 b7bd 0000 0000 2aa0 a23d 0000 0000
000002f0: fcc0 cebd 0000 0000 01d8 a73c 23df cb3d
00000300: c496 6dbd 6faf cbbc 0000 0000 0000 0000
00000310: 9874 cd3d feab 6c3d 0af5 e13c 7a05 e43d
00000320: 0000 0000 bfdb ebbd 0000 0080 ffa4 a63d
00000330: 0000 0080 9ec6 fb3c c79f 05be 21c0 a83c
00000340: d34b 593d 0000 0000 3ded a33d 9de2 643d
00000350: 0000 0000 f188 adbd f0a4 383d 0000 0000
00000360: 0000 0000 c8e6 8abd aeb6 83bd d00d 24bd
00000370: eba2 66bc 8ad9 ffbc 0000 0080 86ab 6ebd
00000380: c62b a2bd 0000 0080 a26c 89bd 26ef e6bd
00000390: 0000 0000 0000 0000 0000 0080 16c4 e63c
000003a0: ff44 86bd 0000 0080 0000 0000 1b8f f0bc
000003b0: b5b4 8d3d 0000 0000 0000 0080 0454 903c
000003c0: 4cc7 c53c e508 513c 0000 0080 f4be 4cbd
000003d0: d730 2abe 0000 0080 0000 0080 0000 0080
000003e0: ad10 75bd c0e8 c9bd 29d1 92bc 0c51 49bd
000003f0: 0000 0000 5b1a 9abd 0000 0000 4f7c 48bd
