ode_net/code/output/2023-2-28(22;35)_chalmers_350genes_150samples_earlyT_0bimod_1initvar_100epochs/interm_models/trained_model_epoch_30_alpha_comb.pt (torch, 338083 bytes, 3 tensors)

weight_orig f4 [350, 80]
00000000: 3cbc debc b816 983c 12d6 bb3c 0bd1 80bc
00000010: be21 de3c aea6 fe3c fec3 afbc 9cff 66bd
00000020: 062e 32bd ce0b 83bb 8742 f8bb 5c9d 833d
00000030: 3e56 0dbe ca84 2abd 2704 943d d157 283d
00000040: eeb6 803d fa38 9dbd 40c9 5bbc 33f6 3e3d
00000050: 39f6 8cbd 7bfe 0a3d 5083 c5bc e65c 833b
00000060: 33e9 213d e945 acbc 1a0a 16bd ab96 95bd
00000070: 444c 8c3c 3e31 193c 1438 85bd 670b c3bd
00000080: b38b 88bd ea39 b4bd ba5e a63c 4458 a93c
00000090: fd5b aabc 0e0f 953c a4c1 853d c028 033d
000000a0: 1a4a a4bd 68e7 863d a28e a33c 2d86 0abd
000000b0: 8fe0 773d 1d3b 033d ec13 ad3c 7d85 bd3d
000000c0: 0309 313d 8d3e 803d 1bcc eabc fc15 413d
000000d0: d53a 963d 8919 993d 5d65 95bd b4e0 473d
000000e0: eda4 993c 0891 963c e867 38bd b980 ec3c
000000f0: 7a29 c33c 1bfb 92bc de4e 41bd 41b7 eb3d
00000100: 8d30 b2bd 9012 1dbd ebfb e0bb ae95 373d
00000110: 0a4f 37bc b846 633c 7f44 e5b9 5cf9 693d
00000120: e7ff 743c 21b9 403d b3d4 febc 8aa8 f83c
00000130: 61c6 3e3d 3f21 773d 0f77 013d 617f bb3a
00000140: 92c8 54bc fe82 a23b 374d 32bd 7dc6 18bd
00000150: 911f d0bd 35dc cf3c 5a22 05bd 20cb 23bd
00000160: 6a72 6fbd 457d 48bd b863 d93d 363c 71bc
00000170: 5b50 b93d c66b 8dbc 306f 82bd 6f88 0abd
00000180: 7f96 3ebd f511 8e3c afdf 04bc 01a9 afbd
00000190: 3882 aabd 7266 163d 075f 9bbc 3804 d73d
000001a0: 0d8f 7ebb 756c a63d a6b1 6dbd 89d5 c2bc
000001b0: 3170 e7bc 3494 06bd a5c6 91bc 0480 403d
000001c0: a811 ad3c cac0 9dbc 4eea c7bc 76a9 463d
000001d0: 9ebb 533d af1f 63bd 3c25 c1bd d4c4 9d3c
000001e0: a9c4 75bd c33d 113c aa0d 64bd 357c 6d3d
000001f0: 5042 15bd 9657 b9b9 3411 9abc fca7 78bc
00000200: 58c3 c03c 4699 ccbc de5d bfbd 72df 403c
00000210: eafe 533d 1822 843c 20ec 463d 9192 a43d
00000220: bd78 183d 0b1f 233d 6c4c 3ebb 5697 2f3e
00000230: 2577 3d3d a793 293d 824f babb 2940 cabc
00000240: c2b8 ab3d 6fd1 c8bd 89da 64bc 25e6 b43c
00000250: 1d2a cf3d d275 c7bd 008f 583d 5ffa 2ebc
00000260: 7e09 2cbd 064f 843d 4188 e7bc 475f 2f3d
00000270: 49e2 b63d 798a da3d c728 14bc a459 e63d
00000280: 1123 e4bc fbc2 943c a1d0 39bd 54e6 16be
00000290: d5cd b7bc e536 e2bd d375 67bd 557e 633d
000002a0: b536 9cbc f644 43bd 4e5a 09bd 7218 893c
000002b0: b46e c53d e115 0abd 6e0c 013d 887b e5bc
000002c0: 255a f6bc 935b 2e3d af32 d2bd a97a 183d
000002d0: d0d5 733c 2b29 8a3d c2ed 6c3d 83b2 c13d
000002e0: ee0f 2a3d e160 193c cdf4 213d a4ca 96bd
000002f0: 2de6 04bc 71d5 fcbd 12df 653c 83de 8cbd
00000300: d6bb 0fbd f13d 55bd f7b0 153d 0075 03bd
00000310: a0e6 25bc 4a72 b43d e7ac 003e fa77 51bd
00000320: 5c5e 9ebb 5184 18bd 9ddc 1f3d a135 d5bc
00000330: 48fd af3d 8b0a 1abd df2d 5dbc e3ab e5bd
00000340: e848 f8bd 51f5 743d 63e7 713d 483b 223d
00000350: 028d 03bd cb3d f53b 2384 9b3d 81df 463d
00000360: 6d69 d33c 367f c0bd ed68 cb3c fed8 2c3e
00000370: 6b95 b03d f1f0 23bc c1df b1bb 9d28 19bb
00000380: 0066 4dbc 9745 0abd ea57 88bd 0053 aabc
00000390: 8ddd d6bb 4c0a 50bc ebf4 04bc eaba 6ebc
000003a0: 29ff 6abc 0f37 403d c942 a63d 5405 7e3d
000003b0: 1421 d73c df83 363c d1ef 22bd 2b4a 7fbb
000003c0: 0e79 2c3d 7aa1 a43d d6bb a6bd 5777 25bd
000003d0: 0086 843b a10e 78bd 017d bcbc e244 16bd
000003e0: 1a36 7fbd 1ff2 d1bd b7a5 ae3d dbfd 803d
000003f0: 2d39 c83d 2312 6bbd c98c 933b 66fe 183b
-0.027189367 0.01856552 0.022929225 -0.01572468 0.027115699 0.031085338 -0.021455761 -0.05639611
-0.043500923 -0.00399921 -0.00757629 0.06426498 -0.1380243 -0.041630544 0.072273545 0.041099373
0.06284891 -0.07676883 -0.013414681 0.046621513 -0.06882901 0.033934098 -0.024110466 0.004008877
0.039529037 -0.02102943 -0.036630727 -0.07304128 0.01712621 0.009350119 -0.06504837 -0.09523659
-0.066672705 -0.08800109 0.020308841 0.020671971 -0.020795817 0.018195655 0.06531075 0.032021284
-0.08021946 0.06587106 0.019965474 -0.033819366 0.06051689 0.032038797 0.021127664 0.092539765
0.043221485 0.062619306 -0.028661778 0.047140107 0.0733544 0.074755736 -0.07294724 0.048798278
0.0187554 0.018379703 -0.045020968 0.028869973 0.023823489 -0.017942002 -0.047194354 0.11509562
-0.087006666 -0.03834778 -0.0068659685 0.04482048 -0.011188278 0.013871841 -0.00043729317 0.057122573
0.01495359 0.047051553 -0.031107282 0.030353803 0.046575908 0.06033444 0.031607684 0.001430493
-0.012987273 0.004959463 -0.04353067 -0.03729867 -0.10162271 0.025373558 -0.032503463 -0.039988637
-0.058458723 -0.04894759 0.10614723 -0.014723828 0.0904853 -0.017263304 -0.063688636 -0.03382152
-0.046530243 0.017342547 -0.008109971 -0.08577157 -0.083256185 0.036718793 -0.018966211 0.104988515
-0.003884259 0.08126155 -0.058030747 -0.023783462 -0.02825174 -0.03285618 -0.017794916 0.046997085
0.021126583 -0.019256968 -0.024403717 0.048501454 0.051692598 -0.055450138 -0.0943093 0.019258894
-0.060002003 0.008864823 -0.055677094 0.05797978 -0.036440194 -0.00035351206 -0.018807031 -0.015176769
0.023530647 -0.02497543 -0.093440756 0.0117720235 0.051756777 0.016129538 0.04856503 0.08035768
0.03722452 0.039824527 -0.002903725 0.17147574 0.046256203 0.041400578 -0.0056857476 -0.024688797
0.08384849 -0.09805571 -0.0139681185 0.022082398 0.10115454 -0.09739269 0.05287075 -0.01067981
-0.04200124 0.06460385 -0.028263213 0.042815473 0.08929879 0.10670943 -0.009042925 0.11247566
-0.027848752 0.01815938 -0.04536498 -0.147363 -0.022437016 -0.110456266 -0.05650885 0.0555404
-0.019069055 -0.04767319 -0.033533387 0.01673529 0.096402556 -0.03371227 0.031505994 -0.028013006
-0.030072281 0.0425678 -0.102635734 0.037226353 0.01488252 0.067461334 0.05784393 0.094578765
0.041519098 0.009361477 0.0395401 -0.073628694 -0.008111519 -0.12345398 0.014030235 -0.06878378
-0.035091244 -0.052061025 0.03654572 -0.032094 -0.010125786 0.088108614 0.12565957 -0.05113981
-0.004833026 -0.03723556 0.039028753 -0.026026549 0.085932314 -0.03760771 -0.013499706 -0.112144254
-0.12123281 0.059804264 0.05905856 0.039607316 -0.032116897 0.007484173 0.075935625 0.048552994
0.025807107 -0.093992636 0.024830306 0.16879651 0.08622249 -0.010006175 -0.005428285 -0.0023370155
-0.012536526 -0.033757772 -0.06657393 -0.02079153 -0.0065571726 -0.0126977675 -0.008115034 -0.014570931
-0.0143430615 0.046927508 0.08118207 0.0620168 0.02626089 0.011139839 -0.039779488 -0.003895412
0.042107634 0.08038612 -0.081412956 -0.040397014 0.0040442944 -0.060560826 -0.023008825 -0.036686786
-0.062307455 -0.10251259 0.08527701 0.06298419 0.097765304 -0.057390343 0.004502867 0.0023344993

weight_mask f4 [350, 80]
00000000: 0000 803f 0000 803f 0000 803f 0000 803f
00000010: 0000 803f 0000 803f 0000 803f 0000 803f
00000020: 0000 803f 0000 0000 0000 803f 0000 803f
00000030: 0000 803f 0000 803f 0000 803f 0000 803f
00000040: 0000 803f 0000 803f 0000 803f 0000 803f
00000050: 0000 803f 0000 803f 0000 803f 0000 0000
00000060: 0000 803f 0000 803f 0000 803f 0000 803f
00000070: 0000 803f 0000 803f 0000 803f 0000 803f
00000080: 0000 803f 0000 803f 0000 803f 0000 803f
00000090: 0000 803f 0000 803f 0000 803f 0000 803f
000000a0: 0000 803f 0000 803f 0000 803f 0000 803f
000000b0: 0000 803f 0000 803f 0000 803f 0000 803f
000000c0: 0000 803f 0000 803f 0000 803f 0000 803f
000000d0: 0000 803f 0000 803f 0000 803f 0000 803f
000000e0: 0000 803f 0000 803f 0000 803f 0000 803f
000000f0: 0000 803f 0000 803f 0000 803f 0000 803f
00000100: 0000 803f 0000 803f 0000 0000 0000 803f
00000110: 0000 803f 0000 803f 0000 0000 0000 803f
00000120: 0000 803f 0000 803f 0000 803f 0000 803f
00000130: 0000 803f 0000 803f 0000 803f 0000 0000
00000140: 0000 803f 0000 0000 0000 803f 0000 803f
00000150: 0000 803f 0000 803f 0000 803f 0000 803f
00000160: 0000 803f 0000 803f 0000 803f 0000 803f
00000170: 0000 803f 0000 803f 0000 803f 0000 803f
00000180: 0000 803f 0000 803f 0000 803f 0000 803f
00000190: 0000 803f 0000 803f 0000 803f 0000 803f
000001a0: 0000 0000 0000 803f 0000 803f 0000 803f
000001b0: 0000 803f 0000 803f 0000 803f 0000 803f
000001c0: 0000 803f 0000 803f 0000 803f 0000 803f
000001d0: 0000 803f 0000 803f 0000 803f 0000 803f
000001e0: 0000 803f 0000 803f 0000 803f 0000 803f
000001f0: 0000 803f 0000 0000 0000 803f 0000 803f
00000200: 0000 803f 0000 803f 0000 803f 0000 803f
00000210: 0000 803f 0000 803f 0000 803f 0000 803f
00000220: 0000 803f 0000 803f 0000 0000 0000 803f
00000230: 0000 803f 0000 803f 0000 0000 0000 803f
00000240: 0000 803f 0000 803f 0000 803f 0000 803f
00000250: 0000 803f 0000 803f 0000 803f 0000 803f
00000260: 0000 803f 0000 803f 0000 803f 0000 803f
00000270: 0000 803f 0000 803f 0000 803f 0000 803f
00000280: 0000 803f 0000 803f 0000 803f 0000 803f
00000290: 0000 803f 0000 803f 0000 803f 0000 803f
000002a0: 0000 803f 0000 803f 0000 803f 0000 803f
000002b0: 0000 803f 0000 803f 0000 803f 0000 803f
000002c0: 0000 803f 0000 803f 0000 803f 0000 803f
000002d0: 0000 803f 0000 803f 0000 803f 0000 803f
000002e0: 0000 803f 0000 803f 0000 803f 0000 803f
000002f0: 0000 803f 0000 803f 0000 803f 0000 803f
00000300: 0000 803f 0000 803f 0000 803f 0000 803f
00000310: 0000 803f 0000 803f 0000 803f 0000 803f
00000320: 0000 0000 0000 803f 0000 803f 0000 803f
00000330: 0000 803f 0000 803f 0000 803f 0000 803f
00000340: 0000 803f 0000 803f 0000 803f 0000 803f
00000350: 0000 803f 0000 0000 0000 803f 0000 803f
00000360: 0000 803f 0000 803f 0000 803f 0000 803f
00000370: 0000 803f 0000 803f 0000 0000 0000 0000
00000380: 0000 803f 0000 803f 0000 803f 0000 803f
00000390: 0000 0000 0000 803f 0000 803f 0000 803f
000003a0: 0000 803f 0000 803f 0000 803f 0000 803f
000003b0: 0000 803f 0000 803f 0000 803f 0000 0000
000003c0: 0000 803f 0000 803f 0000 803f 0000 803f
000003d0: 0000 0000 0000 803f 0000 803f 0000 803f
000003e0: 0000 803f 0000 803f 0000 803f 0000 803f
000003f0: 0000 803f 0000 803f 0000 0000 0000 0000
1.0 1.0 1.0 1.0 1.0 1.0 1.0 1.0
1.0 0.0 1.0 1.0 1.0 1.0 1.0 1.0
1.0 1.0 1.0 1.0 1.0 1.0 1.0 0.0
1.0 1.0 1.0 1.0 1.0 1.0 1.0 1.0
1.0 1.0 1.0 1.0 1.0 1.0 1.0 1.0
1.0 1.0 1.0 1.0 1.0 1.0 1.0 1.0
1.0 1.0 1.0 1.0 1.0 1.0 1.0 1.0
1.0 1.0 1.0 1.0 1.0 1.0 1.0 1.0
1.0 1.0 0.0 1.0 1.0 1.0 0.0 1.0
1.0 1.0 1.0 1.0 1.0 1.0 1.0 0.0
1.0 0.0 1.0 1.0 1.0 1.0 1.0 1.0
1.0 1.0 1.0 1.0 1.0 1.0 1.0 1.0
1.0 1.0 1.0 1.0 1.0 1.0 1.0 1.0
0.0 1.0 1.0 1.0 1.0 1.0 1.0 1.0
1.0 1.0 1.0 1.0 1.0 1.0 1.0 1.0
1.0 1.0 1.0 1.0 1.0 0.0 1.0 1.0
1.0 1.0 1.0 1.0 1.0 1.0 1.0 1.0
1.0 1.0 0.0 1.0 1.0 1.0 0.0 1.0
1.0 1.0 1.0 1.0 1.0 1.0 1.0 1.0
1.0 1.0 1.0 1.0 1.0 1.0 1.0 1.0
1.0 1.0 1.0 1.0 1.0 1.0 1.0 1.0
1.0 1.0 1.0 1.0 1.0 1.0 1.0 1.0
1.0 1.0 1.0 1.0 1.0 1.0 1.0 1.0
1.0 1.0 1.0 1.0 1.0 1.0 1.0 1.0
1.0 1.0 1.0 1.0 1.0 1.0 1.0 1.0
0.0 1.0 1.0 1.0 1.0 1.0 1.0 1.0
1.0 1.0 1.0 1.0 1.0 0.0 1.0 1.0
1.0 1.0 1.0 1.0 1.0 1.0 0.0 0.0
1.0 1.0 1.0 1.0 0.0 1.0 1.0 1.0
1.0 1.0 1.0 1.0 1.0 1.0 1.0 0.0
1.0 1.0 1.0 1.0 0.0 1.0 1.0 1.0
1.0 1.0 1.0 1.0 1.0 1.0 0.0 0.0

weight f4 [350, 80]
00000000: 3cbc debc b816 983c 12d6 bb3c 0bd1 80bc
00000010: be21 de3c aea6 fe3c fec3 afbc 9cff 66bd
00000020: 062e 32bd 0000 0080 8742 f8bb 5c9d 833d
00000030: 3e56 0dbe ca84 2abd 2704 943d d157 283d
00000040: eeb6 803d fa38 9dbd 40c9 5bbc 33f6 3e3d
00000050: 39f6 8cbd 7bfe 0a3d 5083 c5bc 0000 0000
00000060: 33e9 213d e945 acbc 1a0a 16bd ab96 95bd
00000070: 444c 8c3c 3e31 193c 1438 85bd 670b c3bd
00000080: b38b 88bd ea39 b4bd ba5e a63c 4458 a93c
00000090: fd5b aabc 0e0f 953c a4c1 853d c028 033d
000000a0: 1a4a a4bd 68e7 863d a28e a33c 2d86 0abd
000000b0: 8fe0 773d 1d3b 033d ec13 ad3c 7d85 bd3d
000000c0: 0309 313d 8d3e 803d 1bcc eabc fc15 413d
000000d0: d53a 963d 8919 993d 5d65 95bd b4e0 473d
000000e0: eda4 993c 0891 963c e867 38bd b980 ec3c
000000f0: 7a29 c33c 1bfb 92bc de4e 41bd 41b7 eb3d
00000100: 8d30 b2bd 9012 1dbd 0000 0080 ae95 373d
00000110: 0a4f 37bc b846 633c 0000 0080 5cf9 693d
00000120: e7ff 743c 21b9 403d b3d4 febc 8aa8 f83c
00000130: 61c6 3e3d 3f21 773d 0f77 013d 0000 0000
00000140: 92c8 54bc 0000 0000 374d 32bd 7dc6 18bd
00000150: 911f d0bd 35dc cf3c 5a22 05bd 20cb 23bd
00000160: 6a72 6fbd 457d 48bd b863 d93d 363c 71bc
00000170: 5b50 b93d c66b 8dbc 306f 82bd 6f88 0abd
00000180: 7f96 3ebd f511 8e3c afdf 04bc 01a9 afbd
00000190: 3882 aabd 7266 163d 075f 9bbc 3804 d73d
000001a0: 0000 0080 756c a63d a6b1 6dbd 89d5 c2bc
000001b0: 3170 e7bc 3494 06bd a5c6 91bc 0480 403d
000001c0: a811 ad3c cac0 9dbc 4eea c7bc 76a9 463d
000001d0: 9ebb 533d af1f 63bd 3c25 c1bd d4c4 9d3c
000001e0: a9c4 75bd c33d 113c aa0d 64bd 357c 6d3d
000001f0: 5042 15bd 0000 0080 3411 9abc fca7 78bc
00000200: 58c3 c03c 4699 ccbc de5d bfbd 72df 403c
00000210: eafe 533d 1822 843c 20ec 463d 9192 a43d
00000220: bd78 183d 0b1f 233d 0000 0080 5697 2f3e
00000230: 2577 3d3d a793 293d 0000 0080 2940 cabc
00000240: c2b8 ab3d 6fd1 c8bd 89da 64bc 25e6 b43c
00000250: 1d2a cf3d d275 c7bd 008f 583d 5ffa 2ebc
00000260: 7e09 2cbd 064f 843d 4188 e7bc 475f 2f3d
00000270: 49e2 b63d 798a da3d c728 14bc a459 e63d
00000280: 1123 e4bc fbc2 943c a1d0 39bd 54e6 16be
00000290: d5cd b7bc e536 e2bd d375 67bd 557e 633d
000002a0: b536 9cbc f644 43bd 4e5a 09bd 7218 893c
000002b0: b46e c53d e115 0abd 6e0c 013d 887b e5bc
000002c0: 255a f6bc 935b 2e3d af32 d2bd a97a 183d
000002d0: d0d5 733c 2b29 8a3d c2ed 6c3d 83b2 c13d
000002e0: ee0f 2a3d e160 193c cdf4 213d a4ca 96bd
000002f0: 2de6 04bc 71d5 fcbd 12df 653c 83de 8cbd
00000300: d6bb 0fbd f13d 55bd f7b0 153d 0075 03bd
00000310: a0e6 25bc 4a72 b43d e7ac 003e fa77 51bd
00000320: 0000 0080 5184 18bd 9ddc 1f3d a135 d5bc
00000330: 48fd af3d 8b0a 1abd df2d 5dbc e3ab e5bd
00000340: e848 f8bd 51f5 743d 63e7 713d 483b 223d
00000350: 028d 03bd 0000 0000 2384 9b3d 81df 463d
00000360: 6d69 d33c 367f c0bd ed68 cb3c fed8 2c3e
00000370: 6b95 b03d f1f0 23bc 0000 0080 0000 0080
00000380: 0066 4dbc 9745 0abd ea57 88bd 0053 aabc
00000390: 0000 0080 4c0a 50bc ebf4 04bc eaba 6ebc
000003a0: 29ff 6abc 0f37 403d c942 a63d 5405 7e3d
000003b0: 1421 d73c df83 363c d1ef 22bd 0000 0080
000003c0: 0e79 2c3d 7aa1 a43d d6bb a6bd 5777 25bd
000003d0: 0000 0000 a10e 78bd 017d bcbc e244 16bd
000003e0: 1a36 7fbd 1ff2 d1bd b7a5 ae3d dbfd 803d
000003f0: 2d39 c83d 2312 6bbd 0000 0000 0000 0000
-0.027189367 0.01856552 0.022929225 -0.01572468 0.027115699 0.031085338 -0.021455761 -0.05639611
-0.043500923 -0.0 -0.00757629 0.06426498 -0.1380243 -0.041630544 0.072273545 0.041099373
0.06284891 -0.07676883 -0.013414681 0.046621513 -0.06882901 0.033934098 -0.024110466 0.0
0.039529037 -0.02102943 -0.036630727 -0.07304128 0.01712621 0.009350119 -0.06504837 -0.09523659
-0.066672705 -0.08800109 0.020308841 0.020671971 -0.020795817 0.018195655 0.06531075 0.032021284
-0.08021946 0.06587106 0.019965474 -0.033819366 0.06051689 0.032038797 0.021127664 0.092539765
0.043221485 0.062619306 -0.028661778 0.047140107 0.0733544 0.074755736 -0.07294724 0.048798278
0.0187554 0.018379703 -0.045020968 0.028869973 0.023823489 -0.017942002 -0.047194354 0.11509562
-0.087006666 -0.03834778 -0.0 0.04482048 -0.011188278 0.013871841 -0.0 0.057122573
0.01495359 0.047051553 -0.031107282 0.030353803 0.046575908 0.06033444 0.031607684 0.0
-0.012987273 0.0 -0.04353067 -0.03729867 -0.10162271 0.025373558 -0.032503463 -0.039988637
-0.058458723 -0.04894759 0.10614723 -0.014723828 0.0904853 -0.017263304 -0.063688636 -0.03382152
-0.046530243 0.017342547 -0.008109971 -0.08577157 -0.083256185 0.036718793 -0.018966211 0.104988515
-0.0 0.08126155 -0.058030747 -0.023783462 -0.02825174 -0.03285618 -0.017794916 0.046997085
0.021126583 -0.019256968 -0.024403717 0.048501454 0.051692598 -0.055450138 -0.0943093 0.019258894
-0.060002003 0.008864823 -0.055677094 0.05797978 -0.036440194 -0.0 -0.018807031 -0.015176769
0.023530647 -0.02497543 -0.093440756 0.0117720235 0.051756777 0.016129538 0.04856503 0.08035768
0.03722452 0.039824527 -0.0 0.17147574 0.046256203 0.041400578 -0.0 -0.024688797
0.08384849 -0.09805571 -0.0139681185 0.022082398 0.10115454 -0.09739269 0.05287075 -0.01067981
-0.04200124 0.06460385 -0.028263213 0.042815473 0.08929879 0.10670943 -0.009042925 0.11247566
-0.027848752 0.01815938 -0.04536498 -0.147363 -0.022437016 -0.110456266 -0.05650885 0.0555404
-0.019069055 -0.04767319 -0.033533387 0.01673529 0.096402556 -0.03371227 0.031505994 -0.028013006
-0.030072281 0.0425678 -0.102635734 0.037226353 0.01488252 0.067461334 0.05784393 0.094578765
0.041519098 0.009361477 0.0395401 -0.073628694 -0.008111519 -0.12345398 0.014030235 -0.06878378
-0.035091244 -0.052061025 0.03654572 -0.032094 -0.010125786 0.088108614 0.12565957 -0.05113981
-0.0 -0.03723556 0.039028753 -0.026026549 0.085932314 -0.03760771 -0.013499706 -0.112144254
-0.12123281 0.059804264 0.05905856 0.039607316 -0.032116897 0.0 0.075935625 0.048552994
0.025807107 -0.093992636 0.024830306 0.16879651 0.08622249 -0.010006175 -0.0 -0.0
-0.012536526 -0.033757772 -0.06657393 -0.02079153 -0.0 -0.0126977675 -0.008115034 -0.014570931
-0.0143430615 0.046927508 0.08118207 0.0620168 0.02626089 0.011139839 -0.039779488 -0.0
0.042107634 0.08038612 -0.081412956 -0.040397014 0.0 -0.060560826 -0.023008825 -0.036686786
-0.062307455 -0.10251259 0.08527701 0.06298419 0.097765304 -0.057390343 0.0 0.0
