ode_net/code/output/2023-3-1(2;53)_chalmers_350genes_150samples_earlyT_0bimod_1initvar_100epochs/final_model_prods.pt (torch, 57959 bytes, 2 tensors)

bias f4 [40]
0	0xbda837f4	-0.08213797
1	0xbe246629	-0.16054596
2	0xbdd96735	-0.10615388
3	0xbe1af536	-0.15132603
4	0xbe1f7cb2	-0.15574911
5	0xbdd73b65	-0.105093755
6	0xbe6c5f13	-0.23083143
7	0xbe208166	-0.15674362
8	0xbe14346a	-0.1447312
9	0xbe0b8f2c	-0.13628834
10	0xbda80945	-0.08204893
11	0xbd887cbf	-0.066644184
12	0xbe017c2e	-0.12645027
13	0xbd31b2a9	-0.043383274
14	0xbe2642ed	-0.16236468
15	0xbe532a05	-0.20621498
16	0xbddabc5f	-0.1068046
17	0xbdb75407	-0.08951574
18	0xbe4229f7	-0.18961321
19	0xbe2a26af	-0.16616319
20	0xbda9ae43	-0.08285191
21	0xbd74175a	-0.059592582
22	0xbde92b9f	-0.11385273
23	0xbe098070	-0.13427901
24	0xbe6a3707	-0.22872554
25	0xbdb15564	-0.08658865
26	0xbe6f00bb	-0.23340122
27	0xbdc0dfc1	-0.09417678
28	0xbdd899cc	-0.105762094
29	0xbe3dd477	-0.1853808
30	0xbe001fac	-0.12512082
31	0xbdde7831	-0.108627684
32	0xbe1faeb7	-0.15593992
33	0xbe1c695d	-0.15274568
34	0xbdda39bd	-0.10655544
35	0xbde7afcd	-0.11312828
36	0xbe89f2e6	-0.2694313
37	0xbe0aa0bd	-0.1353788
38	0xbdf969da	-0.12178393
39	0xbe0fa5c1	-0.14028074

weight f4 [40, 350]
0	0x3dc956a1	0.09830976
1	0x3e1bdf15	0.15221818
2	0xbee01e1f	-0.4377298
3	0x3e29fe0d	0.16600819
4	0x3e11f47e	0.14253423
5	0x3d5f7298	0.054552644
6	0x3d240dc1	0.04005218
7	0x3cf76439	0.030199157
8	0x3d98e251	0.074650414
9	0xbcdb232d	-0.026750172
10	0xbdef3639	-0.11680264
11	0x3de295e3	0.11063745
12	0xbd8c99ea	-0.06865294
13	0xbdd6f886	-0.10496621
14	0x3e298795	0.16555627
15	0x3c135dda	0.008994544
16	0xbdd0e4b9	-0.101998754
17	0x3e308e61	0.17241813
18	0xbb42ab14	-0.0029704021
19	0xbd71b3ee	-0.059009485
20	0xbd1c2547	-0.038121488
21	0x3b1b3b48	0.0023686457
22	0x3ddd2734	0.10798493
23	0x3e742170	0.2384088
24	0xbcb7eb5e	-0.022451099
25	0xbe831ec8	-0.25609422
26	0xbe39e6d2	-0.18154457
27	0xbc88d11f	-0.01670128
28	0xbb1ed39d	-0.0024235018
29	0xbd64c7c8	-0.05585459
30	0x3e4cefc9	0.20013346
31	0x3bdc1cdd	0.006717308
32	0xbe4f53b3	-0.20246772
33	0xbde7a3c2	-0.11310531
34	0xbe097a20	-0.13425493
35	0xbdce6adc	-0.100789756
36	0x3e09b75c	0.13448852
37	0x3c1df6da	0.0096413735
38	0xbf1a2837	-0.60217613
39	0x3e282d20	0.16423464
40	0x3ec47f66	0.38378447
41	0xbed68c8d	-0.41904107
42	0xbd1dd29f	-0.038530942
43	0xbce1b40b	-0.027551671
44	0x3d6cffaa	0.057861008
45	0x3d9ff0b0	0.07809579
46	0xbdd9998d	-0.106249906
47	0xbd3d05c6	-0.046148084
48	0x3dbc4ca6	0.09194307
49	0xbe9368f1	-0.28791
50	0xbf3ba5d5	-0.73299915
51	0x3d7355fa	0.059408166
52	0x3e949b58	0.29024768
53	0xbe1aa027	-0.15100156
54	0x3d15dfa4	0.036590233
55	0x3d998a93	0.07497134
56	0xbccd8ab2	-0.02509055
57	0x3ea4e0db	0.322028
58	0xbe5f22b1	-0.21790577
59	0xbeb7ffd9	-0.35937384
60	0x3cf79995	0.0302246
61	0xbc9a2669	-0.018817144
62	0x3e622687	0.2208501
63	0x3db11b40	0.08647776
64	0x3e79fce8	0.24412882
65	0xbdf0204d	-0.11724911
66	0xbe084b41	-0.13309957
67	0x3e21afc9	0.15789713
68	0x3ec11f3f	0.3771915
69	0x3c3fa959	0.0116980905
70	0x3dab2876	0.08357327
71	0xbf13b4aa	-0.57697546
72	0x3ce17246	0.02752031
73	0x3dab29b2	0.08357562
74	0xbd84c28d	-0.0648242
75	0x3b92bbdb	0.0044779605
76	0xbd099c4a	-0.033596314
77	0x3d67a299	0.05655155
78	0xbed9b42c	-0.42520273
79	0x3ea8ce52	0.3296991
80	0xbf122e0a	-0.571015
81	0xbcd4ab8a	-0.025960702
82	0xbe49f57f	-0.19722556
83	0x3c3ba104	0.011451963
84	0x3e30ec1c	0.17277569
85	0xbe4c1e6e	-0.19933483
86	0xbe16e286	-0.1473485
87	0x3de2872a	0.11060937
88	0x3e8901ce	0.2675919
89	0x3dc031a3	0.093844675
90	0x3f0bed9b	0.5465943
91	0xbd227c48	-0.039669305
92	0xbebe3b0f	-0.37154433
93	0xbe338448	-0.1753093
94	0x3ef7e6f8	0.48418403
95	0x3db42f73	0.08798113
96	0xbe2cf8f5	-0.16891845
97	0x3bd57df0	0.006515257
98	0x3c4396be	0.011937795
99	0x3d344252	0.04400856
100	0x3d34a422	0.04410184
101	0x3c22af2b	0.009929459
102	0x3d0ad2f9	0.033892605
103	0x3d1b98b4	0.037987426
104	0x3c006f4a	0.007839033
105	0x3cc8b614	0.024500884
106	0x3d2351e4	0.03987302
107	0xbb3dd5fd	-0.0028966658
108	0x3cd2abc9	0.02571668
109	0x3cf687b6	0.030094009
110	0x3d73df3c	0.059539065
111	0x3d32d41a	0.043659307
112	0x3d413713	0.047171663
113	0x3cd8d07e	0.026466604
114	0x3d43f3b8	0.04783985
115	0xbd77fab8	-0.06054184
116	0xbc9b22af	-0.018937437
117	0x3d12a7cb	0.03580455
118	0x3bee5642	0.0072734663
119	0xbc98d4cb	-0.018656155
120	0xbc3ba2da	-0.011452401
121	0x3d23b66b	0.03996889
122	0x3c370a9f	0.011171966
123	0x3c5a4665	0.013322447
124	0xbd330e02	-0.04371453
125	0x3d083638	0.033254832
126	0xbd005a4f	-0.031336125
127	0xbd30cea8	-0.043165833
128	0x3cffd20a	0.031228084
129	0x3d0ef807	0.034904506
130	0x3ccc8e76	0.024970274
131	0x3cd7ff35	0.02636681
132	0x3d3ff2ac	0.04686229
133	0xbd0d59b0	-0.03450936
134	0xbd0705f2	-0.032964654
135	0x3cc7a422	0.024370257
136	0x3b843564	0.004034685
137	0x3c2a4c96	0.010394236
138	0xbd29b644	-0.041433588
139	0x3c37f203	0.011227134
140	0xbdb1fb01	-0.08690453
141	0x3c4396c2	0.011937799
142	0x3d43df27	0.047820237
143	0xbc272c41	-0.010203422
144	0x3c0aa304	0.0084617175
145	0x3ca18909	0.019718664
146	0x3d7a4988	0.06110528
147	0xbd401817	-0.046897974
148	0xbb6f9b08	-0.0036560912
149	0x3d07b37c	0.033130154
150	0xbc1acb2a	-0.009447852
151	0x3cdc1007	0.026863111
152	0xbb63b78b	-0.0034746851
153	0x3ce9ce64	0.028540798
154	0x3c0daed5	0.00864764
155	0xbd27d04d	-0.040970135
156	0x3d24cdd6	0.040235363
157	0xbbc7b0a0	-0.0060940534
158	0x3ad72c04	0.0016416316
159	0x3ba204e2	0.0049444297
160	0xbca591eb	-0.02021118
161	0x3d00bc97	0.031429853
162	0xbc0aaf6f	-0.008464678
163	0x3d0f4d9c	0.034986123
164	0x3d5e6d21	0.054303292
165	0x3c7f4e0e	0.0155825745
166	0x3d148d2d	0.03626745
167	0xb905cb68	-0.00012759643
168	0xbca19b18	-0.019727275
169	0x3a9290a4	0.0011182022
170	0xbca192f1	-0.019723387
171	0xbd0dfae9	-0.034663115
172	0xbc889a11	-0.016675027
173	0xbb516e55	-0.0031956632
174	0xbbd7906b	-0.0065784953
175	0xbc50786e	-0.012724025
176	0xbd8a7beb	-0.06761917
177	0x3b30dd3a	0.002698733
178	0x3d460433	0.04834385
179	0x3d35c65f	0.044378635
180	0x3d228dfd	0.03968619
181	0x3d51a97d	0.051187027
182	0x3d27be0c	0.040952727
183	0xbcb28517	-0.021791978
184	0xba65b509	-0.0008762633
185	0xb99769f4	-0.00028879906
186	0x3d1e89c0	0.038705587
187	0x3db2a913	0.087236546
188	0xbcdf05eb	-0.027224502
189	0x3c7c2935	0.015390684
190	0xbbd12b42	-0.0063833306
191	0x3ca808d1	0.020512016
192	0xbd47c87c	-0.04877518
193	0x3ccde589	0.025133865
194	0xbc8269e2	-0.01591963
195	0xbd287922	-0.041131146
196	0x3d1420f3	0.036164235
197	0x3ccffd46	0.025389325
198	0x3c909eec	0.017653905
199	0x3da073b2	0.07834567
200	0x3d08509b	0.033279996
201	0xbd377d2c	-0.044797108
202	0x3cf599f8	0.029980645
203	0x3cc2b758	0.023769066
204	0x3d9d8c96	0.0769283
205	0xba4b22b4	-0.00077490066
206	0xbcc8ceb7	-0.024512632
207	0x3d3ee5ca	0.046605863
208	0x3bdfed18	0.0068336837
209	0xbc63d600	-0.013906002
210	0xbca8f4fd	-0.020624632
211	0xbc33488b	-0.010942589
212	0xbcaf7fd1	-0.021423252
213	0xbd327ec0	-0.04357791
214	0x3d872330	0.06598508
215	0x3d50d51f	0.050984498
216	0xbb526fba	-0.0032110051
217	0xbd1e2b18	-0.038615316
218	0xbcbd9d87	-0.023146404
219	0xbd2a3bfe	-0.04156112
220	0xbd32e71f	-0.043677446
221	0x3c0a52d0	0.008442596
222	0xbda62216	-0.0811197
223	0xbd523a14	-0.05132492
224	0xb9cb0cc1	-0.0003872868
225	0x3c813186	0.015770685
226	0xbd3e85b4	-0.046514228
227	0xbd046895	-0.0323263
228	0x3bc32c3b	0.0059562004
229	0x3c96272d	0.018329227
230	0x3d29bb23	0.041438233
231	0x3d55d348	0.052203447
232	0x3c97231b	0.018449357
233	0x3c90cc0d	0.017675424
234	0xbc00449f	-0.007828861
235	0xbd16acf6	-0.036786042
236	0x3caa941d	0.020822579
237	0x3c9a639a	0.018846322
238	0x3b6f583c	0.0036521098
239	0x3d1bd616	0.038045965
240	0xbd4d2fff	-0.0500946
241	0xbbf33594	-0.0074221585
242	0x3c8b532d	0.017007435
243	0x3cff4c58	0.031164333
244	0xbc98840c	-0.018617652
245	0xbc5c8bfb	-0.013461108
246	0x3ca6df33	0.020370102
247	0x3cc27a4f	0.023739962
248	0x3ce64bc3	0.028112298
249	0xbd833128	-0.0640586
250	0x3bba3e72	0.0056837136
251	0xbca94a90	-0.020665437
252	0x3c04d0ad	0.008106393
253	0xbcc3681e	-0.023853358
254	0x3c9e2f74	0.019309737
255	0x3d1499fa	0.036279656
