ode_net/code/output/2023-3-21(3;59)_chalmers_350genes_150samples_earlyT_0bimod_1initvar_150epochs/interm_models/trained_model_epoch_7_alpha_comb.pt (torch, 113451 bytes, 1 tensors)

weight f4 [350, 80]
00000000: 1469 c63b a26c 183c c9dc aabd 4f56 0e3b
00000010: e002 893d 11f0 cfbd 4f60 963c 6f6a 72bc
00000020: eec5 813c 76f3 bfbc 9eb5 efb8 c28b 933d
00000030: e7a5 4ebc 46c5 4c3d 690b e93d 5697 2f3c
00000040: a490 ef3c 1580 a7bc 8df6 653c a6eb 1abd
00000050: 6cdb 253d 82a7 3a3d a099 393d 3722 e03c
00000060: b2c1 3bbd f988 b3bc c9c9 623d 62de ab3c
00000070: 3834 c1bc 8bd1 893d b15e c1bc 7079 d93c
00000080: e9b6 5cbd 421c 0c3d c294 c639 1045 eb3d
00000090: 2ed2 993d 0fd4 06bd a625 d53d 6b28 95bd
000000a0: df49 4e3d eec7 a43c cdc7 2d3d 79c5 0abd
000000b0: bd99 cb3c f6d4 963c a583 9ebc 1637 5a3d
000000c0: ab4d 87bc bd0e 87bc b30f ab3d e858 273d
000000d0: e954 9a3d 7406 adbd 77a2 7b3c 4e0d 4c3c
000000e0: 39c0 f53c 576e 6f3d d192 3f3d 54ca b4bb
000000f0: 8b2c 1e3d d2b8 8c3c b3dc 08bd 022a 85bd
00000100: 14b3 df3c bc83 3cbc eac7 04bd 4e8c 7c3d
00000110: 39ee 153d 4d16 633d 0612 e33d f24b 603d
00000120: a963 9e39 3dd9 5e3c 9884 a0bd 8582 99bc
00000130: 6809 813d 4fef 323d 4851 90bd 42a9 07bd
00000140: 2105 55bb b10d fabd 1ba8 51bd e506 7d3c
00000150: 61d2 2bbb 08e8 cbbd d216 95bd 661f 6c3c
00000160: 4dd0 e0bb 24ce 84bd a68b 213d 4063 923d
00000170: 2f38 0f3d 141e 3b3b 2284 9f3d 55cf 54bd
00000180: 90ff 9dbd 926f 2cbd 3986 b73a a314 103a
00000190: 2723 8ebc 0736 923d 8966 203d de53 6bbc
000001a0: 2d39 e43c 9533 d43d 1dd3 2e3d fcec a03d
000001b0: 9f4c d5bc 7b95 73bd 4334 1e3c f6e8 abbd
000001c0: 3685 b83c ddc7 cebc 654f 87bc 4ac0 6dbc
000001d0: 00e4 6ebd 7948 3e3c ecef 393d 61f1 9dbd
000001e0: 52d7 b43a ebfe 0d3d 3af3 673d fa09 1abc
000001f0: 306a 363d d9c2 223b 9b15 1e3c fa63 83bc
00000200: 2d90 87bd 1a1c ef3c b3bc 863c f3a4 423d
00000210: 70fb 13bd 91dd bdbd 74d9 353d 6e55 733d
00000220: c6a8 913d f086 07bd 9053 603c 1586 bcbc
00000230: 9318 ecba 05b2 393c dc0b c03d 7dc1 b13d
00000240: c0d7 b03c 2504 053d e7b8 ac3b 34e2 093d
00000250: c00e 893d a63f d5bd 7150 1ebd df54 a33c
00000260: ba30 b23d c15f 27bd 9a2a 11bd b5f2 6b3c
00000270: 4c65 ce3d 52e6 ed3c ec5c f7bc e630 523d
00000280: 12bd 94bc fa2f 85bc 14ac 93bc 2f2e 87bd
00000290: d507 b73c 2e7d a23d 50eb 61bd 4717 e4bc
000002a0: c297 28bc 883c a33d 1eb0 a6bc 0b3d 3e3d
000002b0: ad27 8a3d 219d f83c 7659 8f3c e4b9 383a
000002c0: 1dc9 febb f72c 7d3d f3ec 35bd 8436 1ebd
000002d0: 6120 88bd e948 4abc 6463 1b3d d4c2 c0ba
000002e0: e0c0 143d f717 21bc e396 2abd d761 633c
000002f0: 03bf 233d f315 32bc 1c4d 813b 6dc7 bd3c
00000300: f20a 28bc 1f52 763d 1781 bdbc 4d0c 0b3d
00000310: 8548 883d 414d 46bc df11 353d 89b8 f13a
00000320: ac9a 04bc f6ee 96bc f154 fa3d 7f40 87bc
00000330: 5f93 89bd ad5c 3abc 5223 003e 7345 a73c
00000340: f1a7 bcb9 7705 01bc 4a3a 51bd bc88 e2bb
00000350: c704 e83b fa0c 85bc 77a3 01bd fd92 afbb
00000360: c3f6 4c3d 700a 44bd aa77 703a 82e8 e13d
00000370: 9141 833d d7a0 d6bd bab0 57bd bc11 52bc
00000380: cf89 a6bb 5816 073d 1059 333e d68d 91bd
00000390: 9ffa d43b 12c5 473b 4ea1 bbbd 82ee a53c
000003a0: cf8f 80bc 3e4a 25bd 45e0 933d d69c 433c
000003b0: 8437 92bc 58a5 2e3c d0ee 78ba 00dc 903d
000003c0: 008c 7d3d 06d9 86ba 4eca 503d 2e8a 3d3c
000003d0: 7146 74bc 41b6 163d e154 2f3d 6b24 70bd
000003e0: 5f0d 52bc bf18 e9bd 7c67 ad3c 9a77 203d
000003f0: 3068 463d 082b d33d 743a e03d 3e6d f9bc
0.0060550068 0.009303244 -0.08342893 0.0021718924 0.066900015 -0.10153211 0.01835647 -0.014795884
0.01584145 -0.02343152 -0.00011430237 0.07204391 -0.012612796 0.049992822 0.113791294 0.010717234
0.029243775 -0.020446816 0.014035833 -0.037822388 0.04049246 0.045569904 0.045312524 0.027360065
-0.04583902 -0.0219159 0.05536822 0.020980064 -0.02358447 0.0672942 -0.023604723 0.026547164
-0.053885374 0.034206636 0.00037876336 0.11487782 0.07510792 -0.03291708 0.104075715 -0.072831
0.050363418 0.020114865 0.042426873 -0.03387973 0.024853582 0.018412095 -0.019349882 0.05327519
-0.016516527 -0.01648652 0.08352604 0.040856272 0.075357266 -0.084484965 0.015358559 0.012454344
0.029998885 0.058454838 0.046770874 -0.0055172835 0.0386167 0.017177973 -0.0334136 -0.06502153
0.02730707 -0.011506017 -0.032417215 0.061657242 0.03660414 0.05544119 0.11087422 0.054759927
0.0003021036 0.013601598 -0.0783779 -0.018738994 0.06300622 0.043685254 -0.07046753 -0.0331204
-0.0032504278 -0.12209643 -0.05118571 0.015443538 -0.0026217925 -0.09956366 -0.07279743 0.014411783
-0.006860769 -0.06484631 0.03943982 0.07147837 0.03496569 0.0028551864 0.07788874 -0.05195554
-0.0771476 -0.04209859 0.0014001793 0.0005496239 -0.017350746 0.07139211 0.039160285 -0.014363257
0.027859295 0.10361401 0.042681802 0.07857701 -0.026037512 -0.059468728 0.009656015 -0.08394043
0.022524457 -0.025241787 -0.01651735 -0.014511177 -0.058322906 0.0116139585 0.045394823 -0.07712055
0.0013797081 0.034666937 0.056628443 -0.009401793 0.044534862 0.0024835377 0.009648706 -0.016038883
-0.06619296 0.029188205 0.0164474 0.04752059 -0.03612846 -0.09270776 0.044396833 0.059407644
0.07112269 -0.03308767 0.013691798 -0.023013154 -0.0018012695 0.011333947 0.09377262 0.08679483
0.021587253 0.032474656 0.0052710655 0.03366299 0.066922665 -0.104125306 -0.038650934 0.01993793
0.087007 -0.040862802 -0.03544102 0.014401128 0.100779146 0.02904049 -0.030195676 0.051316164
-0.018156562 -0.016258229 -0.01802639 -0.06600606 0.022342602 0.079340324 -0.055156052 -0.02784313
-0.010290088 0.0797053 -0.020347651 0.046444934 0.06745849 0.030348362 0.017498713 0.0007046743
-0.0077754394 0.06181046 -0.044415426 -0.03862621 -0.06646801 -0.012346485 0.037936583 -0.0014706501
0.036316752 -0.009832374 -0.041647803 0.013878307 0.039977085 -0.010869491 0.0039459597 0.023166383
-0.010256516 0.06013691 -0.023132844 0.033947278 0.06654457 -0.01210338 0.044206496 0.0018441837
-0.008093517 -0.018424492 0.122232325 -0.016510246 -0.06717562 -0.011374635 0.12513474 0.020418858
-0.0003598328 -0.007874838 -0.05108098 -0.0069132727 0.0070806476 -0.01624154 -0.031650033 -0.0053580985
0.050040018 -0.047861516 0.0009173105 0.110306755 0.0640899 -0.104798965 -0.052658774 -0.012821611
-0.005082346 0.032980293 0.17514443 -0.07107131 0.006499603 0.0030482453 -0.09161626 0.020255331
-0.015693573 -0.040354006 0.072205104 0.011939248 -0.017848738 0.010659538 -0.0009496035 0.07073212
0.061901093 -0.0010288067 0.050974183 0.011568589 -0.014909373 0.036794905 0.042805556 -0.05862848
-0.012820571 -0.11381673 0.02116751 0.03917656 0.048439205 0.10310942 0.10948649 -0.030447599
