ode_net/code/output/2023-3-10(16;59)_chalmers_350genes_150samples_earlyT_0bimod_1initvar_150epochs/interm_models/trained_model_epoch_15_sums.pt (torch, 57895 bytes, 2 tensors)

weight f4 [40, 350]
0	0xbcb4de6e	-0.022078719
1	0xbd1abe4c	-0.037779137
2	0x3cfd41a9	0.030915098
3	0x3d10da12	0.035364218
4	0xbd67cb05	-0.0565901
5	0xbda52c25	-0.080650605
6	0x3bca8d2e	0.0061813807
7	0xbbfa2fbb	-0.0076350844
8	0x3cb92722	0.022601668
9	0x3baed4e0	0.0053354353
10	0xbcb4e8b1	-0.022083612
11	0xbad8572d	-0.0016505473
12	0xbd512cf4	-0.05106826
13	0x3d356de4	0.044294253
14	0xbd382d37	-0.044964995
15	0xbd088c46	-0.0333369
16	0x3d0f918a	0.035050906
17	0xbe169808	-0.14706433
18	0xbdb226ea	-0.086988285
19	0xbc47a7cf	-0.012186005
20	0xbcc1cd9a	-0.023657609
21	0xb9fa0e0c	-0.00047694182
22	0xbe1e9ce2	-0.15489534
23	0xbd9078fa	-0.070543244
24	0xbd751cde	-0.059841983
25	0xbd0a17b4	-0.03371401
26	0xbd4fff9a	-0.05078087
27	0x3bb0e448	0.005398307
28	0xbc7210e4	-0.014774535
29	0xbde5bf99	-0.11218185
30	0x3d5c7767	0.05382481
31	0xbd1470bd	-0.036240328
32	0xbd4bb00d	-0.049728442
33	0xbc74041b	-0.014893557
34	0xbc8195fa	-0.015818585
35	0x3c3746ed	0.011186344
36	0x3df21447	0.11820274
37	0xbd2bde48	-0.04196003
38	0x3e45688e	0.19278166
39	0x3c788061	0.015167327
40	0xbcb0173b	-0.021495452
41	0xbcb72327	-0.02235563
42	0x3d112f73	0.03544564
43	0x3bbf3229	0.005834837
44	0xbd879d4e	-0.066218
45	0xbc95a26f	-0.018265931
46	0x3cfb48c6	0.03067435
47	0xbc4ddc9f	-0.012564807
48	0xbc8c60e8	-0.017136052
49	0x3c9ab655	0.01888577
50	0xbd6adf5d	-0.057341922
51	0x3cadef0e	0.021232154
52	0x3db443b9	0.088019796
53	0xbcb52ce5	-0.022116134
54	0x3a4731ea	0.00075986853
55	0xbc8c771f	-0.017146645
56	0xbc4c8039	-0.012481743
57	0xbb842141	-0.0040322845
58	0xbc35a8ba	-0.011087591
59	0x3d2359a3	0.039880406
60	0xbac5733c	-0.001506425
61	0x3d532186	0.051545642
62	0xbdaa4dd3	-0.08315625
63	0x3d357565	0.04430141
64	0xbd0b27da	-0.033973552
65	0xbf4fdc5f	-0.81195635
66	0x3ca216c8	0.019786254
67	0x3cb45c3e	0.02201664
68	0x3c0ebd57	0.008712134
69	0xbdd30ca8	-0.10305148
70	0x3d6e9acf	0.058253106
71	0x3b9bd47d	0.004755555
72	0xbc840966	-0.016117763
73	0xbcf6ee83	-0.030143028
74	0x3d11a514	0.03555782
75	0x3c4270fe	0.01186776
76	0x3c816306	0.015794288
77	0xbd09fb3f	-0.033686873
78	0xbd1d1715	-0.03835209
79	0xbc15cf5a	-0.009143675
80	0xbc324e53	-0.010882932
81	0x3d3cb3bd	0.04606985
82	0x3b1d60ac	0.002401392
83	0xbd43bb21	-0.047785882
84	0xbe746c9a	-0.23869553
85	0x3df0f5b7	0.117656164
86	0x3b5b3bc4	0.003345237
87	0x3e34cd99	0.17656554
88	0xbcdd81bd	-0.027039403
89	0xbcdf66ea	-0.027270753
90	0x3e7a48bb	0.24441807
91	0x3d870dd4	0.065944344
92	0x3c92a151	0.017899187
93	0x3d1ad1b0	0.03779763
94	0x3ca12cc0	0.019674659
95	0xbc109116	-0.008823654
96	0x3e7b1d53	0.24522905
97	0x3d439724	0.04775156
98	0x3d834258	0.064091384
99	0xbbd971fd	-0.006635903
100	0x3d33d863	0.043907534
101	0x3c07637a	0.008263463
102	0xbd439e18	-0.04775819
103	0xbc8fda30	-0.017560095
104	0x3cbef0b8	0.023308143
105	0x3c895865	0.016765783
106	0xbcc1a024	-0.023635931
107	0x3cc4681e	0.023975428
108	0x3d0c327c	0.034227833
109	0x3d5d3e79	0.054014657
110	0xbcaa4bad	-0.020788038
111	0x3c04b5af	0.008099957
112	0x3beaae5d	0.007161899
113	0x3c87a79b	0.016559413
114	0xbbabc51e	-0.005242004
115	0x3cf8ab66	0.030355167
116	0x3ce35cb7	0.02775417
117	0xba4f1df9	-0.00079008896
118	0x3cca4e1f	0.024695454
119	0xbcfc0409	-0.030763643
120	0x3b66301a	0.0035123886
121	0x3c4183c6	0.011811202
122	0xbc366995	-0.011133571
123	0xbc8d9f26	-0.017287802
124	0xbd93ff15	-0.072263874
125	0x3c38aaac	0.01127116
126	0x3bebf9f9	0.00720143
127	0xbd0dc7e1	-0.034614448
128	0xbaeb0807	-0.001793147
129	0xbbf3c635	-0.0074393996
130	0x3d3168f8	0.043312997
131	0x3cc7704c	0.02434554
132	0x3c55c0fd	0.0130465
133	0x3c522bdf	0.0128278425
134	0x3bca1bd9	0.0061678705
135	0xbd361a51	-0.04445869
136	0xbcfdc00d	-0.030975366
137	0x3c21a1dc	0.00986525
138	0x3dae8f0a	0.08523376
139	0xbbd8927a	-0.0066092582
140	0x3b01670b	0.0019745256
141	0xbd70eb8b	-0.05881838
142	0x3d00a8c8	0.031410962
143	0xbd94093c	-0.07228324
144	0x3c0a9b72	0.008459913
145	0x3ccd34a8	0.025049523
146	0xbc0bfdf2	-0.008544432
147	0x3d68319e	0.056687944
148	0x3c932508	0.017961994
149	0xbbcd2e6a	-0.0062616365
150	0x3a4d1035	0.00078225444
151	0xbb4eb67e	-0.003154188
152	0x3d566330	0.052340686
153	0xbc985063	-0.018593019
154	0xbc305e71	-0.010764704
155	0xbd0d0173	-0.03442521
156	0x3cc89d8a	0.024489183
157	0x3ce8c506	0.02841426
158	0xbd6b022a	-0.05737511
159	0x3b82d108	0.0039922036
160	0x3ba4254c	0.005009329
161	0xbb9d6265	-0.0048029893
162	0xbcfdc6f7	-0.030978663
163	0xbc946ef4	-0.018119313
164	0x3b97cc50	0.0046325102
165	0xbcf11c1e	-0.029432353
166	0x39f2ee52	0.000463354
167	0x3cb3b8f3	0.021938777
168	0xbd9ef26e	-0.077610835
169	0xbc2358c1	-0.009969891
170	0xbb02fb62	-0.0019986262
171	0xbcdb2cf1	-0.026754828
172	0x3d17c6de	0.03705489
173	0xbc12b167	-0.008953429
174	0x3d9ec277	0.07751935
175	0x3d1eb22d	0.03874414
176	0xbd95a719	-0.07307262
177	0xbc564629	-0.013078251
178	0xbd36cd56	-0.044629417
179	0xbc1bdeea	-0.009513596
180	0x3cd6f836	0.026241403
181	0xbb056f15	-0.00203604
182	0xbca1124d	-0.019662047
183	0x3c29869c	0.010347035
184	0x3d7b8f6c	0.061416075
185	0x3d01851c	0.031621084
186	0x3b026a35	0.001989973
187	0x3d5015dd	0.0508021
188	0x3cd8ec2b	0.026479801
189	0x3c05df86	0.008170968
190	0x3c7b331e	0.0153320115
191	0xbd0bce8f	-0.034132537
192	0xbce37dba	-0.027769912
193	0x3d1fb2c1	0.038988832
194	0x3cf800e1	0.030273857
195	0x3c9de839	0.019275771
196	0xbd02e21f	-0.031953927
197	0xbca4a191	-0.020096572
198	0xbb907264	-0.0044081677
199	0xbc7b3756	-0.015333017
200	0xbcd5d4fb	-0.026102534
201	0x3ce683ea	0.028139073
202	0xbc220a4b	-0.009890149
203	0x3bd8ee7d	0.006620227
204	0xbd5fd2e9	-0.0546445
205	0xbd125dc3	-0.03573395
206	0x3d20b012	0.039230414
207	0xbd206943	-0.039162885
208	0xbd845a46	-0.06462531
209	0x3c0920c2	0.0083696265
210	0xbd235581	-0.039876465
211	0x3ceffca4	0.029295273
212	0x3c9a7328	0.018853739
213	0xbb84ff54	-0.004058758
214	0x3c0c0764	0.008546684
215	0xbc752a3e	-0.014963685
216	0x3bd9f385	0.0066513442
217	0xbb77f414	-0.003783469
218	0x3c870279	0.016480671
219	0x3bb48f5a	0.005510253
220	0xbbc738eb	-0.006079783
221	0x36080120	2.0266234e-06
222	0x3cf58ea9	0.029975252
223	0x3ce13ba1	0.027494254
224	0x3d4b535d	0.04964005
225	0xbc0d58cf	-0.008627131
226	0x3cbb21cf	0.02284327
227	0x3d0bcabe	0.034128897
228	0xbd2b186d	-0.04177134
229	0xbbe8a1c2	-0.007099361
230	0x3adaeaf7	0.0016702105
231	0xbd2582e8	-0.040408045
232	0xbd269c0d	-0.040676165
233	0x3b63c968	0.0034757499
234	0x3a442009	0.000748158
235	0xbccb03fb	-0.024782171
236	0x3d45c042	0.048279054
237	0xbb8624ef	-0.0040937583
238	0xbbeccfa7	-0.0072269025
239	0xbd7e79fa	-0.062128045
240	0xbd393aa7	-0.04522195
241	0xbca667f9	-0.02031325
242	0xbd44f751	-0.04808742
243	0xbc72406d	-0.014785868
244	0x3c93fb1a	0.01806407
245	0xbd816d9f	-0.06319737
246	0xbd2abe23	-0.041685235
247	0xbd397a7c	-0.045282826
248	0x3d8506c5	0.06495432
249	0x3d1ad3ff	0.03779983
250	0x3c4d595d	0.012533513
251	0xbcbb114c	-0.022835396
252	0xbc0f323e	-0.008740006
253	0x3b15fd89	0.0022886714
254	0xbccd7f81	-0.025085213
255	0xbc6e5ee4	-0.014548991

bias f4 [40]
0	0xbc209c0f	-0.009802832
1	0x3cafc36e	0.021455493
2	0x3d001dc6	0.031278394
3	0xbbc55050	-0.006021537
4	0x3cb33e9f	0.021880446
5	0xbc96d7f8	-0.018413529
6	0x3ca63473	0.020288682
7	0xbc70f2d0	-0.0147063285
8	0xbd1688b8	-0.03675148
9	0x3c9860aa	0.01860078
10	0xbd35aa19	-0.04435167
11	0xbd566ec8	-0.052351743
12	0x3d077f09	0.033080135
13	0xbb0a2da8	-0.0021084342
14	0xbcc3f764	-0.023921676
15	0xbc8d33f8	-0.017236695
16	0x3b7d3881	0.0038638415
17	0x3d196ddb	0.037458282
18	0x3d7a1eaf	0.06106442
19	0xbb471444	-0.003037707
20	0x3d4fa144	0.050690904
21	0xbcdb0387	-0.02673508
22	0xbd22822b	-0.03967492
23	0x3bfc653b	0.0077024973
24	0x3d201c65	0.03908958
25	0x3d047c09	0.03234485
26	0xbd5b8e72	-0.053602643
27	0xbd4b29bc	-0.049600348
28	0x3c99e73d	0.01878702
29	0xbccf68a7	-0.025318457
30	0xbd287231	-0.041124526
31	0xbd2edaa5	-0.042688984
32	0xbc9e92e9	-0.019357162
33	0x3d5273ab	0.05137984
34	0x3d15fd9f	0.036618825
35	0x3d4d0144	0.050050035
36	0xbc18e47c	-0.009331819
37	0xbd441874	-0.047874883
38	0xbc047d75	-0.008086552
39	0xbd29bf86	-0.041442417
