ode_net/code/output/2023-9-8(9;11)_chalmers_350genes_150samples_earlyT_0bimod_1initvar_300epochs/interm_models/trained_model_epoch_25_alpha_comb_sums.pt (torch, 170019 bytes, 3 tensors)

weight_orig f4 [350, 40]
000000 28 74 71 3b 58 6a 5c bc e4 a3 a4 3d f9 68 3e bd
       0.0036842916 -0.013453089 0.08039072 -0.04648683
000010 35 28 8e 3c ce 34 9e 3c ec 26 84 3d 1c 5d a6 bc
       0.017353157 0.019312289 0.06452736 -0.02030807
000020 dc bd d4 bc d3 e5 6b 3b 8a 77 9e bc f6 91 0b bd
       -0.025969438 0.003599514 -0.01934411 -0.034074746
000030 e6 f4 ae 3d 5b b4 9d 3c 06 64 08 bd ac 8e ee 3c
       0.085428044 0.01925104 -0.033298515 0.029120766
000040 ab 3e be 3d 86 84 74 bd ee bc c9 bb 93 61 d8 3b
       0.09289297 -0.059696697 -0.0061565554 0.0066034286
000050 30 b4 51 3c 52 33 eb 3d 52 8d 93 3c 3d db c9 bc
       0.012799308 0.11484398 0.018011723 -0.024640674
000060 02 3d a0 3c 0a 6c 9f bc c5 a4 52 bb c9 54 87 3b
       0.01956034 -0.019460697 -0.0032141667 0.00412998
000070 80 f6 a4 bc ff 09 e6 3c e6 24 dd bc ed de 94 3c
       -0.020137072 0.028080938 -0.026995134 0.018172706
000080 07 66 66 bc 50 a8 94 bc 8d e2 31 bd a9 7f e3 3c
       -0.014062411 -0.018146664 -0.043428946 0.027770834
000090 f4 bf 80 bd 32 0d 39 bd 68 ba c8 3c 49 6f 25 3d
       -0.06286612 -0.0451786 0.024502948 0.040389333
0000a0 20 6a 14 3c 7c 00 da 3c e6 8c 04 3d 4f d9 04 3d
       0.009058505 0.02661156 0.032360934 0.032433804
0000b0 51 cd d4 3b e2 72 3b 3d d8 5d d4 3d 64 7a d3 bd
       0.006494202 0.045763858 0.10369462 -0.103260785
0000c0 d6 c4 95 bd da 5e 4c 3d 87 5b 80 bc 86 aa 75 3b
       -0.07312934 0.049895145 -0.015668644 0.0037485673
0000d0 81 eb 27 be 38 70 54 3c 42 0e c8 bd f9 0d fc 3c
       -0.16398431 0.012966208 -0.097683445 0.030768381
0000e0 41 a7 11 bd 9a 13 df bc 71 9e 0e bc 3d d5 50 3c
       -0.035559896 -0.027231026 -0.008704768 0.0127461525
0000f0 3e e1 22 3d 16 5e ea 3c 2c 22 05 bd 96 20 af 3c
       0.03976559 0.028609317 -0.032503292 0.021377843
000100 15 3a 6c bc c6 f1 57 3d d4 be cb 3d ff d8 a6 3d
       -0.014418145 0.052720807 0.09948507 0.081468575
000110 9a 3c fb 3b a9 16 7b 3d 1d 96 bb bc c9 88 88 3c
       0.0076671364 0.061300907 -0.022898728 0.016666787
000120 ac 72 e5 3c 03 83 c5 bd 8d dc 89 bd 73 93 4e bd
       0.028008781 -0.09644129 -0.0673152 -0.050433587
000130 a9 4a 1a bc 10 d5 ac bd f5 2e d2 3c e7 0d 0f bc
       -0.009417214 -0.08439076 0.025657156 -0.008731342
000140 ba 54 80 3d ab 4d 35 bd 5a 62 84 3d dc 5e 03 bd
       0.0626616 -0.044263523 0.064640716 -0.032072887
000150 6e 11 0e bd b2 5e 4d 3d 70 50 35 3d d8 ea f0 bb
       -0.03468459 0.050139137 0.044266164 -0.0073522143
000160 b8 6c c7 3d 94 5c 8f 3d b7 a9 35 3d 92 69 14 3d
       0.09737533 0.0700008 0.044351306 0.036233492
000170 78 e8 82 3c 31 c8 c2 bc 7f 2a 58 bc 10 af a2 bc
       0.01597999 -0.0237771 -0.013193726 -0.019858867
000180 b5 86 bc 3c d2 44 94 3c 41 38 17 3d 26 bd 92 3b
       0.023013452 0.018099222 0.036918882 0.0044781147
000190 8c 63 59 bc 8e 1c bb 3c 22 bd 30 bd 8a 1a 65 3d
       -0.013268363 0.022840764 -0.04314912 0.055933513
0001a0 c0 6a 04 3d 9e ec 05 3d 0b a9 18 3d a7 7d 87 3d
       0.032328367 0.03269636 0.037270587 0.06615763
0001b0 09 ab 7d 3c 79 79 07 3d 4a f6 21 bd be cc 84 bc
       0.0154826725 0.03307483 -0.03954152 -0.01621091
0001c0 54 e4 5a 3d 13 ca 87 3b f1 b8 f8 bd 42 91 d9 bb
       0.053440407 0.004143962 -0.1214465 -0.0066396305
0001d0 17 b1 9f 3c 1a 70 8a 3d 68 18 0d 3d ca a8 1b bd
       0.019493623 0.06759663 0.034447104 -0.038002767
0001e0 a3 d4 6d bd b3 10 c0 3d ad 8c 1c 3c 57 da 2f 3d
       -0.058064114 0.09378185 0.009555024 0.042932834
0001f0 22 ae a6 3d 20 1e 8b bd 2e c1 89 3c 2e 95 a7 bc
       0.08138682 -0.06792855 0.016815748 -0.020456877
000200 b6 3f 11 3b 5b 90 85 bd 52 c6 8a bc 05 cf 50 3d
       0.0022163219 -0.06521674 -0.01694027 0.05097868
000210 49 c7 5a bd b2 94 cc bd a1 47 76 bd 83 51 85 3c
       -0.05341271 -0.09989299 -0.060126904 0.01627422
000220 18 11 63 3d 6b 8b 0f bd f7 c9 97 3c 38 c4 ae 3d
       0.055436224 -0.03504507 0.018528922 0.085335195
000230 6c 68 19 bd 64 f4 a3 3d 1b 5f 90 bd 97 5d 59 3c
       -0.0374531 0.08005598 -0.0704939 0.013266942
000240 40 67 20 3c 88 d8 0b 3c 33 ce 89 3d 24 e5 f8 3d
       0.009790242 0.008535512 0.067287825 0.1215308
000250 79 f8 0a 3d c2 20 a9 3a b6 68 b4 bc 5b e0 1b bb
       0.03392837 0.0012903439 -0.022022586 -0.002378485
000260 98 ff 48 3d 7c 3c 60 bd 04 3c 4c bd d3 4f 34 bc
       0.04907188 -0.054745182 -0.049861923 -0.01100536
000270 8f 78 0a bd 84 00 17 39 72 a6 4b ba 9a 01 fb bb
       -0.03380638 0.00014400674 -0.0007768638 -0.007660103
000280 b0 bb ec 3c e6 b7 00 3e 5e 44 ba 3d 25 de ce bc
       0.02889809 0.12570152 0.09095071 -0.025252411
000290 e2 6c c0 bc 71 d5 0a bd 17 49 9f 3c 97 3a 55 3c
       -0.02348942 -0.03389496 0.019444032 0.013014457
0002a0 d2 f0 4f bd ab 6a 13 bd c5 11 cf bd c6 de 47 3d
       -0.050766774 -0.0359904 -0.10110811 0.048796438
0002b0 93 53 28 3d ea 39 9d 3d 40 d2 4a 3d ad 2f dc 3d
       0.041095328 0.07677062 0.049516916 0.10751281
0002c0 fc c1 5f bd f5 e9 26 bc 1b 68 66 3d e1 39 90 bd
       -0.054628357 -0.010187616 0.056251626 -0.070422895
0002d0 2e 66 2e 3d 31 64 4a 3e e5 f5 8c bd f5 20 09 3e
       0.042577915 0.19764782 -0.06882838 0.13391478
0002e0 9c fa 2f 3c 72 58 a1 bc 43 8f 45 bc 32 88 82 3d
       0.010740902 -0.019695494 -0.012058082 0.063736334
0002f0 57 37 23 3c a5 ba 36 3d 2a 89 ca bd 16 3f cf bd
       0.0099619245 0.04461159 -0.09889443 -0.101194546
000300 21 77 41 bd 61 69 87 3d 94 61 b7 3c 57 7f 95 bd
       -0.04723275 0.06611896 0.022385396 -0.07299679
000310 1b 30 07 bd 7e 87 92 bb 27 08 33 bc 5a 40 7b bd
       -0.03300486 -0.0044717183 -0.010927237 -0.061340667
000320 f7 90 94 3c 2b 00 86 bc 0d fa 96 38 ad 6a 1a bc
       0.01813553 -0.016357502 7.199133e-05 -0.009424848
000330 87 2f 29 bc 7e 8d 31 ba 2a ac b0 ba dc ac 60 3c
       -0.010326273 -0.0006773098 -0.0013479043 0.013713088
000340 9b 21 08 3b d9 2a 48 bc eb 73 d4 bb 72 ec d3 bc
       0.0020771984 -0.012217247 -0.006483545 -0.025869582
000350 5e ec 20 3a 17 4e f3 bb 33 2b 43 bb f6 1c 17 3a
       0.0006138737 -0.0074250805 -0.0029780387 0.00057645084
000360 b6 57 02 3d 40 46 01 3a 9f 0a 60 3b 85 b5 3d bc
       0.03182193 0.00049314275 0.0034186018 -0.011578922
000370 f0 b8 b6 bc 5e 22 76 bb 0e ea 09 bc ef 86 19 bc
       -0.022304982 -0.0037557106 -0.008417619 -0.00937055
000380 8b 52 4b 3c 86 8a 02 3b b4 b6 b1 3c e3 06 9f 3c
       0.0124098165 0.0019918992 0.021693565 0.019412464
000390 3c 52 bc 3c d3 aa dc 3b 66 bc 79 3c b3 99 14 bd
       0.022988431 0.006734231 0.015242672 -0.03627939
0003a0 72 5c 30 3d 71 9f 01 bc 3d af 34 bc b8 69 ff 3b
       0.043056913 -0.007911549 -0.011028108 0.007794585
0003b0 ac 0e bc 3c 76 8c 31 bc 16 7c 21 bc 68 45 2e 3d
       0.022956215 -0.010836711 -0.009856245 0.04254666
0003c0 ee 4b c8 bc 94 51 3a bd 7b 2d 50 3c 14 47 e7 3d
       -0.024450269 -0.045487955 0.012706156 0.11292854
0003d0 8e d6 0b bc a0 5a a6 3c 53 9b 07 bd 76 2d d9 bc
       -0.008535041 0.020306885 -0.033107113 -0.026510935
0003e0 64 3c 54 bc 03 88 9f bc e5 b5 ea 3b ac 37 5a bc
       -0.012953851 -0.019474035 0.007162797 -0.013318937
0003f0 6e cd f6 3d cf 81 b9 bc 2c 9e 68 bd 27 5b 80 3b
       0.12050901 -0.022644905 -0.05679147 0.003917116

weight_mask f4 [350, 40]
000000 00 00 80 3f 00 00 80 3f 00 00 80 3f 00 00 80 3f
       1.0 1.0 1.0 1.0
000010 00 00 80 3f 00 00 80 3f 00 00 80 3f 00 00 80 3f
       1.0 1.0 1.0 1.0
000020 00 00 80 3f 00 00 80 3f 00 00 80 3f 00 00 80 3f
       1.0 1.0 1.0 1.0
000030 00 00 80 3f 00 00 80 3f 00 00 80 3f 00 00 80 3f
       1.0 1.0 1.0 1.0
000040 00 00 80 3f 00 00 80 3f 00 00 80 3f 00 00 80 3f
       1.0 1.0 1.0 1.0
000050 00 00 80 3f 00 00 80 3f 00 00 80 3f 00 00 80 3f
       1.0 1.0 1.0 1.0
000060 00 00 80 3f 00 00 80 3f 00 00 80 3f 00 00 80 3f
       1.0 1.0 1.0 1.0
000070 00 00 80 3f 00 00 80 3f 00 00 80 3f 00 00 80 3f
       1.0 1.0 1.0 1.0
000080 00 00 80 3f 00 00 80 3f 00 00 80 3f 00 00 80 3f
       1.0 1.0 1.0 1.0
000090 00 00 80 3f 00 00 80 3f 00 00 80 3f 00 00 80 3f
       1.0 1.0 1.0 1.0
0000a0 00 00 80 3f 00 00 80 3f 00 00 80 3f 00 00 80 3f
       1.0 1.0 1.0 1.0
0000b0 00 00 80 3f 00 00 80 3f 00 00 80 3f 00 00 80 3f
       1.0 1.0 1.0 1.0
0000c0 00 00 80 3f 00 00 80 3f 00 00 80 3f 00 00 80 3f
       1.0 1.0 1.0 1.0
0000d0 00 00 80 3f 00 00 80 3f 00 00 80 3f 00 00 80 3f
       1.0 1.0 1.0 1.0
0000e0 00 00 80 3f 00 00 80 3f 00 00 80 3f 00 00 80 3f
       1.0 1.0 1.0 1.0
0000f0 00 00 80 3f 00 00 80 3f 00 00 80 3f 00 00 80 3f
       1.0 1.0 1.0 1.0
000100 00 00 80 3f 00 00 80 3f 00 00 80 3f 00 00 80 3f
       1.0 1.0 1.0 1.0
000110 00 00 80 3f 00 00 80 3f 00 00 80 3f 00 00 80 3f
       1.0 1.0 1.0 1.0
000120 00 00 80 3f 00 00 80 3f 00 00 80 3f 00 00 80 3f
       1.0 1.0 1.0 1.0
000130 00 00 80 3f 00 00 80 3f 00 00 80 3f 00 00 80 3f
       1.0 1.0 1.0 1.0
000140 00 00 80 3f 00 00 80 3f 00 00 80 3f 00 00 80 3f
       1.0 1.0 1.0 1.0
000150 00 00 80 3f 00 00 80 3f 00 00 80 3f 00 00 80 3f
       1.0 1.0 1.0 1.0
000160 00 00 80 3f 00 00 80 3f 00 00 80 3f 00 00 80 3f
       1.0 1.0 1.0 1.0
000170 00 00 80 3f 00 00 80 3f 00 00 80 3f 00 00 80 3f
       1.0 1.0 1.0 1.0
000180 00 00 80 3f 00 00 80 3f 00 00 80 3f 00 00 80 3f
       1.0 1.0 1.0 1.0
000190 00 00 80 3f 00 00 80 3f 00 00 80 3f 00 00 80 3f
       1.0 1.0 1.0 1.0
0001a0 00 00 80 3f 00 00 80 3f 00 00 80 3f 00 00 80 3f
       1.0 1.0 1.0 1.0
0001b0 00 00 80 3f 00 00 80 3f 00 00 80 3f 00 00 80 3f
       1.0 1.0 1.0 1.0
0001c0 00 00 80 3f 00 00 80 3f 00 00 80 3f 00 00 80 3f
       1.0 1.0 1.0 1.0
0001d0 00 00 80 3f 00 00 80 3f 00 00 80 3f 00 00 80 3f
       1.0 1.0 1.0 1.0
0001e0 00 00 80 3f 00 00 80 3f 00 00 80 3f 00 00 80 3f
       1.0 1.0 1.0 1.0
0001f0 00 00 80 3f 00 00 80 3f 00 00 80 3f 00 00 80 3f
       1.0 1.0 1.0 1.0
000200 00 00 80 3f 00 00 80 3f 00 00 80 3f 00 00 80 3f
       1.0 1.0 1.0 1.0
000210 00 00 80 3f 00 00 80 3f 00 00 80 3f 00 00 80 3f
       1.0 1.0 1.0 1.0
000220 00 00 80 3f 00 00 80 3f 00 00 80 3f 00 00 80 3f
       1.0 1.0 1.0 1.0
000230 00 00 80 3f 00 00 80 3f 00 00 80 3f 00 00 80 3f
       1.0 1.0 1.0 1.0
000240 00 00 80 3f 00 00 80 3f 00 00 80 3f 00 00 80 3f
       1.0 1.0 1.0 1.0
000250 00 00 80 3f 00 00 80 3f 00 00 80 3f 00 00 80 3f
       1.0 1.0 1.0 1.0
000260 00 00 80 3f 00 00 80 3f 00 00 80 3f 00 00 80 3f
       1.0 1.0 1.0 1.0
000270 00 00 80 3f 00 00 80 3f 00 00 80 3f 00 00 80 3f
       1.0 1.0 1.0 1.0
000280 00 00 80 3f 00 00 80 3f 00 00 80 3f 00 00 80 3f
       1.0 1.0 1.0 1.0
000290 00 00 80 3f 00 00 80 3f 00 00 80 3f 00 00 80 3f
       1.0 1.0 1.0 1.0
0002a0 00 00 80 3f 00 00 80 3f 00 00 80 3f 00 00 80 3f
       1.0 1.0 1.0 1.0
0002b0 00 00 80 3f 00 00 80 3f 00 00 80 3f 00 00 80 3f
       1.0 1.0 1.0 1.0
0002c0 00 00 80 3f 00 00 80 3f 00 00 80 3f 00 00 80 3f
       1.0 1.0 1.0 1.0
0002d0 00 00 80 3f 00 00 80 3f 00 00 80 3f 00 00 80 3f
       1.0 1.0 1.0 1.0
0002e0 00 00 80 3f 00 00 80 3f 00 00 80 3f 00 00 80 3f
       1.0 1.0 1.0 1.0
0002f0 00 00 80 3f 00 00 80 3f 00 00 80 3f 00 00 80 3f
       1.0 1.0 1.0 1.0
000300 00 00 80 3f 00 00 80 3f 00 00 80 3f 00 00 80 3f
       1.0 1.0 1.0 1.0
000310 00 00 80 3f 00 00 80 3f 00 00 80 3f 00 00 80 3f
       1.0 1.0 1.0 1.0
000320 00 00 80 3f 00 00 80 3f 00 00 80 3f 00 00 80 3f
       1.0 1.0 1.0 1.0
000330 00 00 80 3f 00 00 80 3f 00 00 80 3f 00 00 80 3f
       1.0 1.0 1.0 1.0
000340 00 00 80 3f 00 00 80 3f 00 00 80 3f 00 00 80 3f
       1.0 1.0 1.0 1.0
000350 00 00 80 3f 00 00 80 3f 00 00 80 3f 00 00 80 3f
       1.0 1.0 1.0 1.0
000360 00 00 80 3f 00 00 80 3f 00 00 80 3f 00 00 80 3f
       1.0 1.0 1.0 1.0
000370 00 00 80 3f 00 00 80 3f 00 00 80 3f 00 00 80 3f
       1.0 1.0 1.0 1.0
000380 00 00 80 3f 00 00 80 3f 00 00 80 3f 00 00 80 3f
       1.0 1.0 1.0 1.0
000390 00 00 80 3f 00 00 80 3f 00 00 80 3f 00 00 80 3f
       1.0 1.0 1.0 1.0
0003a0 00 00 80 3f 00 00 80 3f 00 00 80 3f 00 00 80 3f
       1.0 1.0 1.0 1.0
0003b0 00 00 80 3f 00 00 80 3f 00 00 80 3f 00 00 80 3f
       1.0 1.0 1.0 1.0
0003c0 00 00 80 3f 00 00 80 3f 00 00 80 3f 00 00 80 3f
       1.0 1.0 1.0 1.0
0003d0 00 00 80 3f 00 00 80 3f 00 00 80 3f 00 00 80 3f
       1.0 1.0 1.0 1.0
0003e0 00 00 80 3f 00 00 80 3f 00 00 80 3f 00 00 80 3f
       1.0 1.0 1.0 1.0
0003f0 00 00 80 3f 00 00 80 3f 00 00 80 3f 00 00 80 3f
       1.0 1.0 1.0 1.0

weight f4 [350, 40]
000000 28 74 71 3b 58 6a 5c bc e4 a3 a4 3d f9 68 3e bd
       0.0036842916 -0.013453089 0.08039072 -0.04648683
000010 35 28 8e 3c ce 34 9e 3c ec 26 84 3d 1c 5d a6 bc
       0.017353157 0.019312289 0.06452736 -0.02030807
000020 dc bd d4 bc d3 e5 6b 3b 8a 77 9e bc f6 91 0b bd
       -0.025969438 0.003599514 -0.01934411 -0.034074746
000030 e6 f4 ae 3d 5b b4 9d 3c 06 64 08 bd ac 8e ee 3c
       0.085428044 0.01925104 -0.033298515 0.029120766
000040 ab 3e be 3d 86 84 74 bd ee bc c9 bb 93 61 d8 3b
       0.09289297 -0.059696697 -0.0061565554 0.0066034286
000050 30 b4 51 3c 52 33 eb 3d 52 8d 93 3c 3d db c9 bc
       0.012799308 0.11484398 0.018011723 -0.024640674
000060 02 3d a0 3c 0a 6c 9f bc c5 a4 52 bb c9 54 87 3b
       0.01956034 -0.019460697 -0.0032141667 0.00412998
000070 80 f6 a4 bc ff 09 e6 3c e6 24 dd bc ed de 94 3c
       -0.020137072 0.028080938 -0.026995134 0.018172706
000080 07 66 66 bc 50 a8 94 bc 8d e2 31 bd a9 7f e3 3c
       -0.014062411 -0.018146664 -0.043428946 0.027770834
000090 f4 bf 80 bd 32 0d 39 bd 68 ba c8 3c 49 6f 25 3d
       -0.06286612 -0.0451786 0.024502948 0.040389333
0000a0 20 6a 14 3c 7c 00 da 3c e6 8c 04 3d 4f d9 04 3d
       0.009058505 0.02661156 0.032360934 0.032433804
0000b0 51 cd d4 3b e2 72 3b 3d d8 5d d4 3d 64 7a d3 bd
       0.006494202 0.045763858 0.10369462 -0.103260785
0000c0 d6 c4 95 bd da 5e 4c 3d 87 5b 80 bc 86 aa 75 3b
       -0.07312934 0.049895145 -0.015668644 0.0037485673
0000d0 81 eb 27 be 38 70 54 3c 42 0e c8 bd f9 0d fc 3c
       -0.16398431 0.012966208 -0.097683445 0.030768381
0000e0 41 a7 11 bd 9a 13 df bc 71 9e 0e bc 3d d5 50 3c
       -0.035559896 -0.027231026 -0.008704768 0.0127461525
0000f0 3e e1 22 3d 16 5e ea 3c 2c 22 05 bd 96 20 af 3c
       0.03976559 0.028609317 -0.032503292 0.021377843
000100 15 3a 6c bc c6 f1 57 3d d4 be cb 3d ff d8 a6 3d
       -0.014418145 0.052720807 0.09948507 0.081468575
000110 9a 3c fb 3b a9 16 7b 3d 1d 96 bb bc c9 88 88 3c
       0.0076671364 0.061300907 -0.022898728 0.016666787
000120 ac 72 e5 3c 03 83 c5 bd 8d dc 89 bd 73 93 4e bd
       0.028008781 -0.09644129 -0.0673152 -0.050433587
000130 a9 4a 1a bc 10 d5 ac bd f5 2e d2 3c e7 0d 0f bc
       -0.009417214 -0.08439076 0.025657156 -0.008731342
000140 ba 54 80 3d ab 4d 35 bd 5a 62 84 3d dc 5e 03 bd
       0.0626616 -0.044263523 0.064640716 -0.032072887
000150 6e 11 0e bd b2 5e 4d 3d 70 50 35 3d d8 ea f0 bb
       -0.03468459 0.050139137 0.044266164 -0.0073522143
000160 b8 6c c7 3d 94 5c 8f 3d b7 a9 35 3d 92 69 14 3d
       0.09737533 0.0700008 0.044351306 0.036233492
000170 78 e8 82 3c 31 c8 c2 bc 7f 2a 58 bc 10 af a2 bc
       0.01597999 -0.0237771 -0.013193726 -0.019858867
000180 b5 86 bc 3c d2 44 94 3c 41 38 17 3d 26 bd 92 3b
       0.023013452 0.018099222 0.036918882 0.0044781147
000190 8c 63 59 bc 8e 1c bb 3c 22 bd 30 bd 8a 1a 65 3d
       -0.013268363 0.022840764 -0.04314912 0.055933513
0001a0 c0 6a 04 3d 9e ec 05 3d 0b a9 18 3d a7 7d 87 3d
       0.032328367 0.03269636 0.037270587 0.06615763
0001b0 09 ab 7d 3c 79 79 07 3d 4a f6 21 bd be cc 84 bc
       0.0154826725 0.03307483 -0.03954152 -0.01621091
0001c0 54 e4 5a 3d 13 ca 87 3b f1 b8 f8 bd 42 91 d9 bb
       0.053440407 0.004143962 -0.1214465 -0.0066396305
0001d0 17 b1 9f 3c 1a 70 8a 3d 68 18 0d 3d ca a8 1b bd
       0.019493623 0.06759663 0.034447104 -0.038002767
0001e0 a3 d4 6d bd b3 10 c0 3d ad 8c 1c 3c 57 da 2f 3d
       -0.058064114 0.09378185 0.009555024 0.042932834
0001f0 22 ae a6 3d 20 1e 8b bd 2e c1 89 3c 2e 95 a7 bc
       0.08138682 -0.06792855 0.016815748 -0.020456877
000200 b6 3f 11 3b 5b 90 85 bd 52 c6 8a bc 05 cf 50 3d
       0.0022163219 -0.06521674 -0.01694027 0.05097868
000210 49 c7 5a bd b2 94 cc bd a1 47 76 bd 83 51 85 3c
       -0.05341271 -0.09989299 -0.060126904 0.01627422
000220 18 11 63 3d 6b 8b 0f bd f7 c9 97 3c 38 c4 ae 3d
       0.055436224 -0.03504507 0.018528922 0.085335195
000230 6c 68 19 bd 64 f4 a3 3d 1b 5f 90 bd 97 5d 59 3c
       -0.0374531 0.08005598 -0.0704939 0.013266942
000240 40 67 20 3c 88 d8 0b 3c 33 ce 89 3d 24 e5 f8 3d
       0.009790242 0.008535512 0.067287825 0.1215308
000250 79 f8 0a 3d c2 20 a9 3a b6 68 b4 bc 5b e0 1b bb
       0.03392837 0.0012903439 -0.022022586 -0.002378485
000260 98 ff 48 3d 7c 3c 60 bd 04 3c 4c bd d3 4f 34 bc
       0.04907188 -0.054745182 -0.049861923 -0.01100536
000270 8f 78 0a bd 84 00 17 39 72 a6 4b ba 9a 01 fb bb
       -0.03380638 0.00014400674 -0.0007768638 -0.007660103
000280 b0 bb ec 3c e6 b7 00 3e 5e 44 ba 3d 25 de ce bc
       0.02889809 0.12570152 0.09095071 -0.025252411
000290 e2 6c c0 bc 71 d5 0a bd 17 49 9f 3c 97 3a 55 3c
       -0.02348942 -0.03389496 0.019444032 0.013014457
0002a0 d2 f0 4f bd ab 6a 13 bd c5 11 cf bd c6 de 47 3d
       -0.050766774 -0.0359904 -0.10110811 0.048796438
0002b0 93 53 28 3d ea 39 9d 3d 40 d2 4a 3d ad 2f dc 3d
       0.041095328 0.07677062 0.049516916 0.10751281
0002c0 fc c1 5f bd f5 e9 26 bc 1b 68 66 3d e1 39 90 bd
       -0.054628357 -0.010187616 0.056251626 -0.070422895
0002d0 2e 66 2e 3d 31 64 4a 3e e5 f5 8c bd f5 20 09 3e
       0.042577915 0.19764782 -0.06882838 0.13391478
0002e0 9c fa 2f 3c 72 58 a1 bc 43 8f 45 bc 32 88 82 3d
       0.010740902 -0.019695494 -0.012058082 0.063736334
0002f0 57 37 23 3c a5 ba 36 3d 2a 89 ca bd 16 3f cf bd
       0.0099619245 0.04461159 -0.09889443 -0.101194546
000300 21 77 41 bd 61 69 87 3d 94 61 b7 3c 57 7f 95 bd
       -0.04723275 0.06611896 0.022385396 -0.07299679
000310 1b 30 07 bd 7e 87 92 bb 27 08 33 bc 5a 40 7b bd
       -0.03300486 -0.0044717183 -0.010927237 -0.061340667
000320 f7 90 94 3c 2b 00 86 bc 0d fa 96 38 ad 6a 1a bc
       0.01813553 -0.016357502 7.199133e-05 -0.009424848
000330 87 2f 29 bc 7e 8d 31 ba 2a ac b0 ba dc ac 60 3c
       -0.010326273 -0.0006773098 -0.0013479043 0.013713088
000340 9b 21 08 3b d9 2a 48 bc eb 73 d4 bb 72 ec d3 bc
       0.0020771984 -0.012217247 -0.006483545 -0.025869582
000350 5e ec 20 3a 17 4e f3 bb 33 2b 43 bb f6 1c 17 3a
       0.0006138737 -0.0074250805 -0.0029780387 0.00057645084
000360 b6 57 02 3d 40 46 01 3a 9f 0a 60 3b 85 b5 3d bc
       0.03182193 0.00049314275 0.0034186018 -0.011578922
000370 f0 b8 b6 bc 5e 22 76 bb 0e ea 09 bc ef 86 19 bc
       -0.022304982 -0.0037557106 -0.008417619 -0.00937055
000380 8b 52 4b 3c 86 8a 02 3b b4 b6 b1 3c e3 06 9f 3c
       0.0124098165 0.0019918992 0.021693565 0.019412464
000390 3c 52 bc 3c d3 aa dc 3b 66 bc 79 3c b3 99 14 bd
       0.022988431 0.006734231 0.015242672 -0.03627939
0003a0 72 5c 30 3d 71 9f 01 bc 3d af 34 bc b8 69 ff 3b
       0.043056913 -0.007911549 -0.011028108 0.007794585
0003b0 ac 0e bc 3c 76 8c 31 bc 16 7c 21 bc 68 45 2e 3d
       0.022956215 -0.010836711 -0.009856245 0.04254666
0003c0 ee 4b c8 bc 94 51 3a bd 7b 2d 50 3c 14 47 e7 3d
       -0.024450269 -0.045487955 0.012706156 0.11292854
0003d0 8e d6 0b bc a0 5a a6 3c 53 9b 07 bd 76 2d d9 bc
       -0.008535041 0.020306885 -0.033107113 -0.026510935
0003e0 64 3c 54 bc 03 88 9f bc e5 b5 ea 3b ac 37 5a bc
       -0.012953851 -0.019474035 0.007162797 -0.013318937
0003f0 6e cd f6 3d cf 81 b9 bc 2c 9e 68 bd 27 5b 80 3b
       0.12050901 -0.022644905 -0.05679147 0.003917116
