ode_net/code/output/2023-9-8(9;11)_chalmers_350genes_150samples_earlyT_0bimod_1initvar_300epochs/interm_models/trained_model_epoch_60_sums.pt (torch, 170655 bytes, 4 tensors)

bias f4 [40]
000000 4f 12 4d 3d 6d 60 39 3c f0 ea ca bc f9 61 69 3c
       0.05006629 0.011314494 -0.02477023 0.01424455
000010 61 29 7f bd ad df 89 3d ec b1 8a bd d7 a5 93 bd
       -0.06229532 0.06732116 -0.06772217 -0.07209366
000020 4f 27 c9 bc b6 f9 ea bb 2d 39 3d 3d 65 dd f1 bc
       -0.024554877 -0.007170881 0.046197105 -0.029524514
000030 12 fd 85 3d 12 6b a0 bc 99 69 f9 3c 60 af 7f 3c
       0.0654241 -0.019582305 0.03044586 0.0156057775
000040 b6 2a 37 bd fa 7e bc bc 6d 23 61 bd 98 33 38 bd
       -0.044718467 -0.023009766 -0.054965425 -0.04497108
000050 31 81 7a bd 8f 2c 0b bd 1b 29 87 3d 83 89 57 bc
       -0.061158363 -0.03397804 0.06599637 -0.013155344
000060 ca 41 8e 3c 24 4d bc bc ec 7a cd bc 9c 9c 14 bd
       0.017365355 -0.022986002 -0.025083028 -0.036282167
000070 be 22 98 bd 64 93 9b bd 30 53 8b bc ab 0e ea bc
       -0.074285015 -0.07596472 -0.01700744 -0.028571447
000080 54 d0 26 bc ed e4 00 3d d1 c2 ad 3c 78 5d 99 3c
       -0.010181505 0.03146832 0.02121106 0.018721327
000090 9a ba df 3c 07 71 a1 bc c9 85 1f bd 03 81 18 3d
       0.027310658 -0.019707216 -0.038945947 0.03723241

weight_orig f4 [40, 350]
000000 43 f5 65 3e 2a f5 6d bd c7 f0 8e 3d 43 2e 22 be
       0.22456841 -0.058095135 0.069795184 -0.1583796
000010 58 20 33 be b5 b7 e8 bd e9 1e c1 3d e5 1c 3b bd
       -0.17492807 -0.11363164 0.09429724 -0.045681853
000020 fa 6d 59 bc 33 2a 7a bc f2 47 31 bd e4 62 7f bd
       -0.013270849 -0.01526885 -0.043281503 -0.06235017
000030 35 fb 9d 3e c3 62 0b be 4e 9b de 3d 2a a6 20 3d
       0.30855718 -0.13611893 0.10869466 0.039220966
000040 8e 37 9a bd a7 ae f9 3c f8 06 95 3c 92 0c e9 3c
       -0.075301275 0.030478789 0.0181918 0.028448377
000050 07 bf 27 be c8 06 99 3d 5e 55 16 3f 7b 9a b3 be
       -0.16381465 0.074719965 0.5872401 -0.35078797
000060 94 da ed bc 92 f5 a7 bc 90 84 ac bd f2 4a 7b 3d
       -0.02903489 -0.02050284 -0.08423722 0.06135077
000070 14 87 b3 bd a5 cc c8 3d 51 8c e3 be 75 e8 fb bc
       -0.087659985 0.09804658 -0.4444299 -0.030750493
000080 61 07 25 3d 67 f1 bb bd 5f c0 17 be e3 1a 2b bc
       0.04029024 -0.09176903 -0.14819477 -0.010443422
000090 80 47 26 be 5c 89 cd bc 2a 9b 41 be 34 20 cd bd
       -0.16238213 -0.025089912 -0.18906847 -0.10015908
0000a0 aa d6 22 3e 5a 36 0d bd 7d 9a 30 3d c5 9c cb bd
       0.159022 -0.03447566 0.04311608 -0.09942011
0000b0 fc e6 8a bc fe 5d 9b bd bb a7 e0 bd f6 0c ce bc
       -0.016955845 -0.07586287 -0.10969492 -0.025152665
0000c0 62 b1 62 3d a6 54 92 3c 13 a7 05 3e e0 13 ba bd
       0.055344947 0.01786263 0.13052015 -0.09085822
0000d0 80 5b 82 ba f8 0b b5 3d 27 33 cf bb 92 90 87 bd
       -0.0009945482 0.088401735 -0.0063232365 -0.066193715
0000e0 8a f4 4c 3c 42 6d 83 3c 84 6a 62 3d cf 86 2f bc
       0.0125094745 0.01604331 0.055277362 -0.010713293
0000f0 0c b8 c0 3b d8 74 af bc 2c b5 39 be a1 45 94 be
       0.005881315 -0.02141802 -0.18135518 -0.28959373
000100 d7 d4 c1 bc 36 76 ad be d2 66 40 be 70 e7 66 3d
       -0.02366106 -0.3387925 -0.18789223 0.05637306
000110 da c0 ca bd 3f a8 0e be 99 e7 28 3c dc 1a cd 3d
       -0.09900065 -0.13931368 0.010309123 0.10014889
000120 09 96 75 3d 9c f3 dc bb 76 be 35 bd 66 ea a3 3c
       0.059957538 -0.0067429077 -0.04437109 0.02000923
000130 78 87 cb 3d 17 86 f5 3c a8 8b 8d 3c 87 69 a2 bc
       0.09937948 0.029971166 0.017278507 -0.01982571
000140 6b 72 6b bd da 90 eb 3c d5 f5 c7 bc 25 90 c7 bd
       -0.057482164 0.028755594 -0.024409214 -0.0974429
000150 6c af 2c be e0 74 d7 3c 90 42 6b 3c f3 f8 c5 bd
       -0.16863793 0.026300848 0.014359131 -0.09666624
000160 30 c6 76 3d af 96 89 3e 60 30 88 bd af 97 7d 3d
       0.0602476 0.26872775 -0.06649852 0.061912235
000170 07 fc 50 3e b3 91 48 bd ef 2e 19 bd fa 68 2a 3b
       0.20408641 -0.048967075 -0.037398275 0.0026002512
000180 9a f0 3b bd b5 cf 9f bc da f3 90 3c 01 4b 87 bc
       -0.045883752 -0.019508222 0.017694402 -0.016515257
000190 44 85 d5 bb 28 bd 39 3d 9d 39 75 3c 8e 47 a4 bc
       -0.0065161306 0.04534641 0.014967349 -0.020053651
0001a0 8f e2 30 3c 8f 63 61 bd dc e2 df 3d 24 79 5e bd
       0.010796203 -0.055026587 0.10931942 -0.054314747
0001b0 e1 e9 72 3c 08 19 ca 3c 3e a1 f9 bc 46 90 8c b8
       0.014826269 0.024670139 -0.030472394 -6.702593e-05
0001c0 f6 01 46 bc 9b 05 52 3d c5 3d 35 3c 9f 1c 37 3d
       -0.012085428 0.051274877 0.01106209 0.04470503
0001d0 27 d5 cb bb bc a0 8e 3c 04 88 30 3d 69 57 28 bc
       -0.006220478 0.017410628 0.043098465 -0.010274746
0001e0 05 3a 89 3c f0 70 74 3c ce 30 67 3c 9b 20 1f bc
       0.016751299 0.0149195045 0.014110757 -0.009712364
0001f0 81 ae ba 3c de ec 79 bc ff c3 5d bd 14 b4 12 bd
       0.022788288 -0.015254227 -0.054141995 -0.035816267
000200 6e 97 7a bd ab 3a b2 3a c3 11 89 b9 74 2a c0 3c
       -0.06117957 0.0013597807 -0.0002614391 0.023457743
000210 66 3f b1 bc 69 f4 63 bc cd 68 16 3c 5b 6e 07 bc
       -0.021636676 -0.013913252 0.00918026 -0.008266057
000220 c8 88 04 be 43 ce 4c 3c 21 41 b3 3b 03 c6 1a 3c
       -0.12942803 0.0125003485 0.0054704105 0.009446624
000230 4f 50 39 3d 5c 84 6e bd bb 02 a7 3c 71 45 90 3d
       0.045242604 -0.058231696 0.020387044 0.07044495
000240 b4 7d 1f bd 54 95 5c 3d d1 e0 0f bd d2 92 3b bd
       -0.03893824 0.053853348 -0.03512651 -0.045794316
000250 88 13 b1 3d ba 64 9a ba f8 08 b4 bc cb 4d 10 3b
       0.086463034 -0.0011779286 -0.021976933 0.0022019024
000260 60 84 ec 3b c1 54 8e bb 95 85 2f 3d fe 16 ff ba
       0.007217929 -0.0043435995 0.042852003 -0.0019461808
000270 3a ce 3a bd 8e b6 86 3d 5b da 9c 3d 4c d9 fe bd
       -0.04560683 0.06577788 0.076588355 -0.1244379
000280 0a e3 60 bd 33 42 47 3c fc 8c 19 bd fd 6b 3a ba
       -0.05490402 0.012161779 -0.03748797 -0.00071114284
000290 6a 18 0a 3d be 7d d2 bd fd 83 02 3d 22 19 cf 3c
       0.03371469 -0.1027789 0.031864155 0.025280539
0002a0 9a 23 c8 bc 0c 73 eb 3b 77 21 81 3c 4e fc 85 bd
       -0.024431039 0.0071853455 0.015763028 -0.06542264
0002b0 80 dc d6 bc 76 53 a2 3b a8 6e cf 3d 64 8b 5d bd
       -0.02622819 0.004953797 0.10128528 -0.05408801
0002c0 0b 2e 80 3c 15 46 a3 3c 50 8a 48 3c 43 ee ef 3c
       0.015646955 0.019930879 0.0122400075 0.029288417
0002d0 00 13 0f bc 4b 9c 71 3c da 48 cf 3c ab cd 64 3c
       -0.008732557 0.014746736 0.025303293 0.013965051
0002e0 bd a1 cf 3b 96 04 8d 3d fd e3 be 3c f1 27 c7 3d
       0.0063364194 0.0688564 0.023302073 0.09724415
0002f0 9c 9e 93 b9 d4 2d b6 bc cc dd 30 bd 30 86 56 bb
       -0.00028156198 -0.02223865 -0.043180272 -0.003273379
000300 f3 15 b8 bc 70 18 8a bc bb 1f 09 3d e7 9f ae bd
       -0.022471404 -0.016857356 0.033477526 -0.08526593
000310 fb d0 21 bc 8d c5 8d 3a 08 61 a9 bc ee 81 da 3c
       -0.009876485 0.0010816321 -0.02067615 0.026673283
000320 df db a8 3c e3 8e a6 bc 90 4b 52 bd f8 96 06 bd
       0.020612655 -0.020331806 -0.051341593 -0.03285882
000330 98 92 31 3d f9 f6 ba 3d ed f3 91 3d ad 78 0b 3d
       0.043352693 0.091291375 0.07126603 0.034050632
000340 4a 3f 64 bc be ff d4 bc 50 61 3e 3d 26 38 78 3c
       -0.013931105 -0.026000854 0.046479523 0.015150106
000350 5c ef 39 bd 5d ac 85 bd c1 ca 3a bd a1 97 dc 3b
       -0.045394287 -0.06527016 -0.045603517 0.0067319428
000360 3f 9b b0 3b df 1a 1e 3c ce de 83 3c 95 c1 ed bc
       0.0053896005 0.009649961 0.016097452 -0.029022971
000370 d4 a1 a1 3c 32 6c 8f 3c 6e 68 03 bc 13 ec 5f 3c
       0.019730486 0.017507646 -0.008020503 0.013667124
000380 d6 24 58 3d d2 10 7f bb 72 2e 12 bb a7 75 ba 3c
       0.052769504 -0.0038919938 -0.0022305516 0.02276118
000390 92 a3 60 3c 6d 47 b7 3c cb 1e 96 3d e1 5e 4e bc
       0.013710873 0.022372926 0.07330092 -0.012595863
0003a0 eb d9 93 bb af 6d a8 3c 5b 3d fa 3c 78 11 f8 3b
       -0.004512062 0.020560114 0.030546835 0.007570442
0003b0 de e8 13 3d 22 c1 e6 3c b8 9f 68 bd 19 5b e7 3d
       0.03611075 0.028168265 -0.056792945 0.112966724
0003c0 c7 ed 00 bd 2e 6d d4 bb 1b de ae bd d4 8c da bc
       -0.031476762 -0.006482742 -0.08538457 -0.02667848
0003d0 51 ab 09 bd 75 d3 15 bd b9 e7 3d 3c 37 94 20 3d
       -0.033610646 -0.036578614 0.0115908915 0.03920385
0003e0 a3 01 92 3d 16 d6 38 3d c1 17 cb bc c8 7a 03 3c
       0.071292184 0.045126043 -0.0247916 0.008024879
0003f0 c7 04 1c 3d f9 a0 02 3b 82 03 e5 3b cf e7 9f bd
       0.038090494 0.0019932373 0.0069889436 -0.07807886

weight_mask f4 [40, 350]
000000 00 00 80 3f 00 00 80 3f 00 00 80 3f 00 00 80 3f
       1.0 1.0 1.0 1.0
000010 00 00 80 3f 00 00 80 3f 00 00 80 3f 00 00 80 3f
       1.0 1.0 1.0 1.0
000020 00 00 80 3f 00 00 80 3f 00 00 80 3f 00 00 80 3f
       1.0 1.0 1.0 1.0
000030 00 00 80 3f 00 00 80 3f 00 00 80 3f 00 00 80 3f
       1.0 1.0 1.0 1.0
000040 00 00 80 3f 00 00 80 3f 00 00 80 3f 00 00 80 3f
       1.0 1.0 1.0 1.0
000050 00 00 80 3f 00 00 80 3f 00 00 80 3f 00 00 80 3f
       1.0 1.0 1.0 1.0
000060 00 00 80 3f 00 00 80 3f 00 00 80 3f 00 00 80 3f
       1.0 1.0 1.0 1.0
000070 00 00 80 3f 00 00 80 3f 00 00 80 3f 00 00 80 3f
       1.0 1.0 1.0 1.0
000080 00 00 80 3f 00 00 80 3f 00 00 80 3f 00 00 80 3f
       1.0 1.0 1.0 1.0
000090 00 00 80 3f 00 00 80 3f 00 00 80 3f 00 00 80 3f
       1.0 1.0 1.0 1.0
0000a0 00 00 80 3f 00 00 80 3f 00 00 80 3f 00 00 80 3f
       1.0 1.0 1.0 1.0
0000b0 00 00 80 3f 00 00 80 3f 00 00 80 3f 00 00 80 3f
       1.0 1.0 1.0 1.0
0000c0 00 00 80 3f 00 00 80 3f 00 00 80 3f 00 00 80 3f
       1.0 1.0 1.0 1.0
0000d0 00 00 80 3f 00 00 80 3f 00 00 80 3f 00 00 80 3f
       1.0 1.0 1.0 1.0
0000e0 00 00 80 3f 00 00 80 3f 00 00 80 3f 00 00 80 3f
       1.0 1.0 1.0 1.0
0000f0 00 00 80 3f 00 00 80 3f 00 00 80 3f 00 00 80 3f
       1.0 1.0 1.0 1.0
000100 00 00 80 3f 00 00 80 3f 00 00 80 3f 00 00 80 3f
       1.0 1.0 1.0 1.0
000110 00 00 80 3f 00 00 80 3f 00 00 80 3f 00 00 80 3f
       1.0 1.0 1.0 1.0
000120 00 00 80 3f 00 00 80 3f 00 00 80 3f 00 00 80 3f
       1.0 1.0 1.0 1.0
000130 00 00 80 3f 00 00 80 3f 00 00 80 3f 00 00 80 3f
       1.0 1.0 1.0 1.0
000140 00 00 80 3f 00 00 80 3f 00 00 80 3f 00 00 80 3f
       1.0 1.0 1.0 1.0
000150 00 00 80 3f 00 00 80 3f 00 00 80 3f 00 00 80 3f
       1.0 1.0 1.0 1.0
000160 00 00 80 3f 00 00 80 3f 00 00 80 3f 00 00 80 3f
       1.0 1.0 1.0 1.0
000170 00 00 80 3f 00 00 80 3f 00 00 80 3f 00 00 80 3f
       1.0 1.0 1.0 1.0
000180 00 00 80 3f 00 00 80 3f 00 00 80 3f 00 00 80 3f
       1.0 1.0 1.0 1.0
000190 00 00 80 3f 00 00 80 3f 00 00 80 3f 00 00 80 3f
       1.0 1.0 1.0 1.0
0001a0 00 00 80 3f 00 00 80 3f 00 00 80 3f 00 00 80 3f
       1.0 1.0 1.0 1.0
0001b0 00 00 80 3f 00 00 80 3f 00 00 80 3f 00 00 80 3f
       1.0 1.0 1.0 1.0
0001c0 00 00 80 3f 00 00 80 3f 00 00 80 3f 00 00 80 3f
       1.0 1.0 1.0 1.0
0001d0 00 00 80 3f 00 00 80 3f 00 00 80 3f 00 00 80 3f
       1.0 1.0 1.0 1.0
0001e0 00 00 80 3f 00 00 80 3f 00 00 80 3f 00 00 80 3f
       1.0 1.0 1.0 1.0
0001f0 00 00 80 3f 00 00 80 3f 00 00 80 3f 00 00 80 3f
       1.0 1.0 1.0 1.0
000200 00 00 80 3f 00 00 80 3f 00 00 80 3f 00 00 80 3f
       1.0 1.0 1.0 1.0
000210 00 00 80 3f 00 00 80 3f 00 00 80 3f 00 00 80 3f
       1.0 1.0 1.0 1.0
000220 00 00 80 3f 00 00 80 3f 00 00 80 3f 00 00 80 3f
       1.0 1.0 1.0 1.0
000230 00 00 80 3f 00 00 80 3f 00 00 80 3f 00 00 80 3f
       1.0 1.0 1.0 1.0
000240 00 00 80 3f 00 00 80 3f 00 00 80 3f 00 00 80 3f
       1.0 1.0 1.0 1.0
000250 00 00 80 3f 00 00 80 3f 00 00 80 3f 00 00 80 3f
       1.0 1.0 1.0 1.0
000260 00 00 80 3f 00 00 80 3f 00 00 80 3f 00 00 80 3f
       1.0 1.0 1.0 1.0
000270 00 00 80 3f 00 00 80 3f 00 00 80 3f 00 00 80 3f
       1.0 1.0 1.0 1.0
000280 00 00 80 3f 00 00 80 3f 00 00 80 3f 00 00 80 3f
       1.0 1.0 1.0 1.0
000290 00 00 80 3f 00 00 80 3f 00 00 80 3f 00 00 80 3f
       1.0 1.0 1.0 1.0
0002a0 00 00 80 3f 00 00 80 3f 00 00 80 3f 00 00 80 3f
       1.0 1.0 1.0 1.0
0002b0 00 00 80 3f 00 00 80 3f 00 00 80 3f 00 00 80 3f
       1.0 1.0 1.0 1.0
0002c0 00 00 80 3f 00 00 80 3f 00 00 80 3f 00 00 80 3f
       1.0 1.0 1.0 1.0
0002d0 00 00 80 3f 00 00 80 3f 00 00 80 3f 00 00 80 3f
       1.0 1.0 1.0 1.0
0002e0 00 00 80 3f 00 00 80 3f 00 00 80 3f 00 00 80 3f
       1.0 1.0 1.0 1.0
0002f0 00 00 80 3f 00 00 80 3f 00 00 80 3f 00 00 80 3f
       1.0 1.0 1.0 1.0
000300 00 00 80 3f 00 00 80 3f 00 00 80 3f 00 00 80 3f
       1.0 1.0 1.0 1.0
000310 00 00 80 3f 00 00 80 3f 00 00 80 3f 00 00 80 3f
       1.0 1.0 1.0 1.0
000320 00 00 80 3f 00 00 80 3f 00 00 80 3f 00 00 80 3f
       1.0 1.0 1.0 1.0
000330 00 00 80 3f 00 00 80 3f 00 00 80 3f 00 00 80 3f
       1.0 1.0 1.0 1.0
000340 00 00 80 3f 00 00 80 3f 00 00 80 3f 00 00 80 3f
       1.0 1.0 1.0 1.0
000350 00 00 80 3f 00 00 80 3f 00 00 80 3f 00 00 80 3f
       1.0 1.0 1.0 1.0
000360 00 00 80 3f 00 00 80 3f 00 00 80 3f 00 00 80 3f
       1.0 1.0 1.0 1.0
000370 00 00 80 3f 00 00 80 3f 00 00 80 3f 00 00 80 3f
       1.0 1.0 1.0 1.0
000380 00 00 80 3f 00 00 80 3f 00 00 80 3f 00 00 80 3f
       1.0 1.0 1.0 1.0
000390 00 00 80 3f 00 00 80 3f 00 00 80 3f 00 00 80 3f
       1.0 1.0 1.0 1.0
0003a0 00 00 80 3f 00 00 80 3f 00 00 80 3f 00 00 80 3f
       1.0 1.0 1.0 1.0
0003b0 00 00 80 3f 00 00 80 3f 00 00 80 3f 00 00 80 3f
       1.0 1.0 1.0 1.0
0003c0 00 00 80 3f 00 00 80 3f 00 00 80 3f 00 00 80 3f
       1.0 1.0 1.0 1.0
0003d0 00 00 80 3f 00 00 80 3f 00 00 80 3f 00 00 80 3f
       1.0 1.0 1.0 1.0
0003e0 00 00 80 3f 00 00 80 3f 00 00 80 3f 00 00 80 3f
       1.0 1.0 1.0 1.0
0003f0 00 00 80 3f 00 00 80 3f 00 00 80 3f 00 00 80 3f
       1.0 1.0 1.0 1.0

weight f4 [40, 350]
000000 43 f5 65 3e 2a f5 6d bd c7 f0 8e 3d 43 2e 22 be
       0.22456841 -0.058095135 0.069795184 -0.1583796
000010 58 20 33 be b5 b7 e8 bd e9 1e c1 3d e5 1c 3b bd
       -0.17492807 -0.11363164 0.09429724 -0.045681853
000020 fa 6d 59 bc 33 2a 7a bc f2 47 31 bd e4 62 7f bd
       -0.013270849 -0.01526885 -0.043281503 -0.06235017
000030 35 fb 9d 3e c3 62 0b be 4e 9b de 3d 2a a6 20 3d
       0.30855718 -0.13611893 0.10869466 0.039220966
000040 8e 37 9a bd a7 ae f9 3c f8 06 95 3c 92 0c e9 3c
       -0.075301275 0.030478789 0.0181918 0.028448377
000050 07 bf 27 be c8 06 99 3d 5e 55 16 3f 7b 9a b3 be
       -0.16381465 0.074719965 0.5872401 -0.35078797
000060 94 da ed bc 92 f5 a7 bc 90 84 ac bd f2 4a 7b 3d
       -0.02903489 -0.02050284 -0.08423722 0.06135077
000070 14 87 b3 bd a5 cc c8 3d 51 8c e3 be 75 e8 fb bc
       -0.087659985 0.09804658 -0.4444299 -0.030750493
000080 61 07 25 3d 67 f1 bb bd 5f c0 17 be e3 1a 2b bc
       0.04029024 -0.09176903 -0.14819477 -0.010443422
000090 80 47 26 be 5c 89 cd bc 2a 9b 41 be 34 20 cd bd
       -0.16238213 -0.025089912 -0.18906847 -0.10015908
0000a0 aa d6 22 3e 5a 36 0d bd 7d 9a 30 3d c5 9c cb bd
       0.159022 -0.03447566 0.04311608 -0.09942011
0000b0 fc e6 8a bc fe 5d 9b bd bb a7 e0 bd f6 0c ce bc
       -0.016955845 -0.07586287 -0.10969492 -0.025152665
0000c0 62 b1 62 3d a6 54 92 3c 13 a7 05 3e e0 13 ba bd
       0.055344947 0.01786263 0.13052015 -0.09085822
0000d0 80 5b 82 ba f8 0b b5 3d 27 33 cf bb 92 90 87 bd
       -0.0009945482 0.088401735 -0.0063232365 -0.066193715
0000e0 8a f4 4c 3c 42 6d 83 3c 84 6a 62 3d cf 86 2f bc
       0.0125094745 0.01604331 0.055277362 -0.010713293
0000f0 0c b8 c0 3b d8 74 af bc 2c b5 39 be a1 45 94 be
       0.005881315 -0.02141802 -0.18135518 -0.28959373
000100 d7 d4 c1 bc 36 76 ad be d2 66 40 be 70 e7 66 3d
       -0.02366106 -0.3387925 -0.18789223 0.05637306
000110 da c0 ca bd 3f a8 0e be 99 e7 28 3c dc 1a cd 3d
       -0.09900065 -0.13931368 0.010309123 0.10014889
000120 09 96 75 3d 9c f3 dc bb 76 be 35 bd 66 ea a3 3c
       0.059957538 -0.0067429077 -0.04437109 0.02000923
000130 78 87 cb 3d 17 86 f5 3c a8 8b 8d 3c 87 69 a2 bc
       0.09937948 0.029971166 0.017278507 -0.01982571
000140 6b 72 6b bd da 90 eb 3c d5 f5 c7 bc 25 90 c7 bd
       -0.057482164 0.028755594 -0.024409214 -0.0974429
000150 6c af 2c be e0 74 d7 3c 90 42 6b 3c f3 f8 c5 bd
       -0.16863793 0.026300848 0.014359131 -0.09666624
000160 30 c6 76 3d af 96 89 3e 60 30 88 bd af 97 7d 3d
       0.0602476 0.26872775 -0.06649852 0.061912235
000170 07 fc 50 3e b3 91 48 bd ef 2e 19 bd fa 68 2a 3b
       0.20408641 -0.048967075 -0.037398275 0.0026002512
000180 9a f0 3b bd b5 cf 9f bc da f3 90 3c 01 4b 87 bc
       -0.045883752 -0.019508222 0.017694402 -0.016515257
000190 44 85 d5 bb 28 bd 39 3d 9d 39 75 3c 8e 47 a4 bc
       -0.0065161306 0.04534641 0.014967349 -0.020053651
0001a0 8f e2 30 3c 8f 63 61 bd dc e2 df 3d 24 79 5e bd
       0.010796203 -0.055026587 0.10931942 -0.054314747
0001b0 e1 e9 72 3c 08 19 ca 3c 3e a1 f9 bc 46 90 8c b8
       0.014826269 0.024670139 -0.030472394 -6.702593e-05
0001c0 f6 01 46 bc 9b 05 52 3d c5 3d 35 3c 9f 1c 37 3d
       -0.012085428 0.051274877 0.01106209 0.04470503
0001d0 27 d5 cb bb bc a0 8e 3c 04 88 30 3d 69 57 28 bc
       -0.006220478 0.017410628 0.043098465 -0.010274746
0001e0 05 3a 89 3c f0 70 74 3c ce 30 67 3c 9b 20 1f bc
       0.016751299 0.0149195045 0.014110757 -0.009712364
0001f0 81 ae ba 3c de ec 79 bc ff c3 5d bd 14 b4 12 bd
       0.022788288 -0.015254227 -0.054141995 -0.035816267
000200 6e 97 7a bd ab 3a b2 3a c3 11 89 b9 74 2a c0 3c
       -0.06117957 0.0013597807 -0.0002614391 0.023457743
000210 66 3f b1 bc 69 f4 63 bc cd 68 16 3c 5b 6e 07 bc
       -0.021636676 -0.013913252 0.00918026 -0.008266057
000220 c8 88 04 be 43 ce 4c 3c 21 41 b3 3b 03 c6 1a 3c
       -0.12942803 0.0125003485 0.0054704105 0.009446624
000230 4f 50 39 3d 5c 84 6e bd bb 02 a7 3c 71 45 90 3d
       0.045242604 -0.058231696 0.020387044 0.07044495
000240 b4 7d 1f bd 54 95 5c 3d d1 e0 0f bd d2 92 3b bd
       -0.03893824 0.053853348 -0.03512651 -0.045794316
000250 88 13 b1 3d ba 64 9a ba f8 08 b4 bc cb 4d 10 3b
       0.086463034 -0.0011779286 -0.021976933 0.0022019024
000260 60 84 ec 3b c1 54 8e bb 95 85 2f 3d fe 16 ff ba
       0.007217929 -0.0043435995 0.042852003 -0.0019461808
000270 3a ce 3a bd 8e b6 86 3d 5b da 9c 3d 4c d9 fe bd
       -0.04560683 0.06577788 0.076588355 -0.1244379
000280 0a e3 60 bd 33 42 47 3c fc 8c 19 bd fd 6b 3a ba
       -0.05490402 0.012161779 -0.03748797 -0.00071114284
000290 6a 18 0a 3d be 7d d2 bd fd 83 02 3d 22 19 cf 3c
       0.03371469 -0.1027789 0.031864155 0.025280539
0002a0 9a 23 c8 bc 0c 73 eb 3b 77 21 81 3c 4e fc 85 bd
       -0.024431039 0.0071853455 0.015763028 -0.06542264
0002b0 80 dc d6 bc 76 53 a2 3b a8 6e cf 3d 64 8b 5d bd
       -0.02622819 0.004953797 0.10128528 -0.05408801
0002c0 0b 2e 80 3c 15 46 a3 3c 50 8a 48 3c 43 ee ef 3c
       0.015646955 0.019930879 0.0122400075 0.029288417
0002d0 00 13 0f bc 4b 9c 71 3c da 48 cf 3c ab cd 64 3c
       -0.008732557 0.014746736 0.025303293 0.013965051
0002e0 bd a1 cf 3b 96 04 8d 3d fd e3 be 3c f1 27 c7 3d
       0.0063364194 0.0688564 0.023302073 0.09724415
0002f0 9c 9e 93 b9 d4 2d b6 bc cc dd 30 bd 30 86 56 bb
       -0.00028156198 -0.02223865 -0.043180272 -0.003273379
000300 f3 15 b8 bc 70 18 8a bc bb 1f 09 3d e7 9f ae bd
       -0.022471404 -0.016857356 0.033477526 -0.08526593
000310 fb d0 21 bc 8d c5 8d 3a 08 61 a9 bc ee 81 da 3c
       -0.009876485 0.0010816321 -0.02067615 0.026673283
000320 df db a8 3c e3 8e a6 bc 90 4b 52 bd f8 96 06 bd
       0.020612655 -0.020331806 -0.051341593 -0.03285882
000330 98 92 31 3d f9 f6 ba 3d ed f3 91 3d ad 78 0b 3d
       0.043352693 0.091291375 0.07126603 0.034050632
000340 4a 3f 64 bc be ff d4 bc 50 61 3e 3d 26 38 78 3c
       -0.013931105 -0.026000854 0.046479523 0.015150106
000350 5c ef 39 bd 5d ac 85 bd c1 ca 3a bd a1 97 dc 3b
       -0.045394287 -0.06527016 -0.045603517 0.0067319428
000360 3f 9b b0 3b df 1a 1e 3c ce de 83 3c 95 c1 ed bc
       0.0053896005 0.009649961 0.016097452 -0.029022971
000370 d4 a1 a1 3c 32 6c 8f 3c 6e 68 03 bc 13 ec 5f 3c
       0.019730486 0.017507646 -0.008020503 0.013667124
000380 d6 24 58 3d d2 10 7f bb 72 2e 12 bb a7 75 ba 3c
       0.052769504 -0.0038919938 -0.0022305516 0.02276118
000390 92 a3 60 3c 6d 47 b7 3c cb 1e 96 3d e1 5e 4e bc
       0.013710873 0.022372926 0.07330092 -0.012595863
0003a0 eb d9 93 bb af 6d a8 3c 5b 3d fa 3c 78 11 f8 3b
       -0.004512062 0.020560114 0.030546835 0.007570442
0003b0 de e8 13 3d 22 c1 e6 3c b8 9f 68 bd 19 5b e7 3d
       0.03611075 0.028168265 -0.056792945 0.112966724
0003c0 c7 ed 00 bd 2e 6d d4 bb 1b de ae bd d4 8c da bc
       -0.031476762 -0.006482742 -0.08538457 -0.02667848
0003d0 51 ab 09 bd 75 d3 15 bd b9 e7 3d 3c 37 94 20 3d
       -0.033610646 -0.036578614 0.0115908915 0.03920385
0003e0 a3 01 92 3d 16 d6 38 3d c1 17 cb bc c8 7a 03 3c
       0.071292184 0.045126043 -0.0247916 0.008024879
0003f0 c7 04 1c 3d f9 a0 02 3b 82 03 e5 3b cf e7 9f bd
       0.038090494 0.0019932373 0.0069889436 -0.07807886
