ode_net/code/output/2023-5-18(6;50)_chalmers_350genes_150samples_earlyT_0bimod_1initvar_250epochs/interm_models/trained_model_epoch_1_sums.pt (torch, 57895 bytes, 2 tensors)

weight f4 [40, 350]
000000 f5 dd c6 3b 7d 23 77 bb 9f b8 9b 3b 86 01 9c 3c
       0.00606894 -0.0037710362 0.004752233 0.019043695
000010 25 98 6c bb 21 04 ef 3b 03 b9 f9 3b cf 28 79 3b
       -0.0036101427 0.0072941934 0.007620932 0.0038018709
000020 04 1f 9d 3c 1e df 47 3b bc 21 06 3c 5f 51 5c ba
       0.019179828 0.0030497978 0.008186754 -0.0008404459
000030 02 c3 00 3c 63 1d 9b 3b d7 b2 ad 3b c5 5e 11 3c
       0.0078589935 0.004733728 0.0053008604 0.0088726925
000040 e7 63 be 3c 7f 25 8e 3b bc d5 7e bb ce fe 90 3b
       0.023240997 0.004337966 -0.003888472 0.0044249063
000050 08 b0 ed 3b 6d 15 27 3b ba 64 3f bc 8f 73 87 3c
       0.0072536506 0.0025494948 -0.01168173 0.016534595
000060 70 10 27 3c 23 eb d0 3b 02 fa 7c 3c 28 39 a3 3c
       0.01019679 0.0063756867 0.015440466 0.019924715
000070 a6 ad 40 b9 a4 fc 44 3c 5c 78 cd 3b 8e 00 a9 3b
       -0.00018375236 0.012023125 0.0062704515 0.005157537
000080 39 5f c2 3b d6 6e 55 3c c6 aa d8 3b 9f 1a 4d 3c
       0.0059317616 0.013026914 0.0066121547 0.012518554
000090 9f 3b 06 3c 3a 44 18 3a 11 4f 4f 3b e2 af 81 3a
       0.008192926 0.00058085064 0.003163282 0.0009894336
0000a0 06 41 16 3c 86 f0 cc 3c bc f0 75 3c a0 7d 23 bb
       0.009170776 0.025017034 0.015011009 -0.0024946705
0000b0 6f c8 b6 3b 7d a8 6d 3c ad 53 ab 3b 2d bc 33 3b
       0.0055780928 0.014505503 0.005228481 0.0027425394
0000c0 69 17 02 3c 17 d1 ef bb e9 36 1d 3c c4 2a 26 bc
       0.007940152 -0.0073186266 0.009595611 -0.010142032
0000d0 25 35 10 3c dc 4a b0 3b fa 2b b4 3b 3e ae 3a 3c
       0.008801733 0.0053800177 0.0054984065 0.011394082
0000e0 e4 6a 73 3b d8 e6 9b 3c 93 28 3a 3c 21 21 a9 3c
       0.003714257 0.019030973 0.011362213 0.02064568
0000f0 06 9b 61 3b da b4 65 3c fe 06 46 3a f3 20 10 3c
       0.0034424677 0.014020169 0.00075541425 0.008796918
000100 c0 3e 85 3b be 68 bf bc 3b 1b 0d 3c aa 09 2c ba
       0.0040663183 -0.023365375 0.008612449 -0.00065627194
000110 74 41 ea 3b 5f 32 ac 3c ed 8d 7b 3c 4e 83 98 bb
       0.007148916 0.021020113 0.015353662 -0.0046543246
000120 76 a1 0e 3c 25 ea 55 3a 38 b3 75 3c bb 4f 7e 3c
       0.0087054875 0.00081601954 0.014996342 0.015521939
000130 c6 03 bd 3b dc 95 ed 3b 7b 40 b7 bb 50 24 80 3b
       0.005768272 0.0072505306 -0.0055924035 0.003910579
000140 75 f0 92 bc 25 a3 2a 3b a8 07 01 bb 72 24 ba 38
       -0.017936924 0.0026037183 -0.0019688401 8.8759596e-05
000150 c3 cd b0 bc 64 f7 9a 3c 81 8c 3c bb af 1b 05 3c
       -0.02158249 0.018916793 -0.002877027 0.008124276
000160 e3 9d ab 3c 78 72 a4 bc b0 4f c9 3b da 67 99 3c
       0.02094931 -0.020074114 0.0061435327 0.018726278
000170 31 d4 72 3c a4 fd 64 3c f1 6b 86 bd 84 5e a2 3b
       0.014821098 0.013976488 -0.06563557 0.004955115
000180 af 1a c4 3c 78 3a 26 3c bc fd d3 3c 3a a3 db 3a
       0.023938505 0.010145776 0.025877826 0.0016757019
000190 56 73 b5 3c 6f 15 b8 bc 91 fa e9 bb fa 67 e3 bc
       0.022149723 -0.022471158 -0.0071404655 -0.02775954
0001a0 e1 0b ea 3c 3c 9b 68 ba bb 00 1b 3c 33 95 a2 3c
       0.028570117 -0.00088732294 0.009460623 0.019846534
0001b0 31 52 f2 3b 72 da b9 bb c3 2e a2 3b 94 48 49 3b
       0.007395052 -0.0056717927 0.004949422 0.0030713426
0001c0 73 7d 36 3b 3f f7 80 3b 67 4e 1c 3b 19 9a d4 ba
       0.002784577 0.003935724 0.0023850442 -0.0016220241
0001d0 2e 1a 54 3c 48 87 26 3b 60 d3 01 3c c3 79 32 bc
       0.012945695 0.0025410224 0.007923931 -0.010893288
0001e0 c4 ac 06 bb be ce 81 3b 01 ac ee 3a 66 7d 95 3c
       -0.0020549754 0.003961413 0.001820922 0.018248271
0001f0 01 1b 86 3c 76 79 29 3c 37 f1 8f 3b a4 84 1f 3c
       0.016370298 0.0103439 0.0043927687 0.009736214
000200 3b f2 0c 3c 9d 5b 5b 3b b8 74 2d 3a 41 64 56 3b
       0.008602674 0.0033471354 0.0006616819 0.0032713565
000210 77 1e f8 3a 4f a7 4f bb e5 cb 4d 3c 88 fe ea 3b
       0.0018929978 -0.0031685417 0.012560819 0.007171456
000220 bc ac 07 bc 9c 81 9f 3b ce be 17 3b ec 9e 34 39
       -0.008280929 0.0048677456 0.00231545 0.0001722534
000230 e0 8d 3c 3b 53 7a 90 3b d5 a2 96 3b 44 1f 1a 3c
       0.0028771088 0.0044091134 0.004597048 0.009406868
000240 b0 27 36 3c 5b 73 72 ba d8 15 4a b9 91 d7 97 3c
       0.011117861 -0.00092487567 -0.00019272359 0.018535407
000250 31 58 63 3b 0f 3d 10 3b 6c d0 83 bb a2 3c 07 3c
       0.0034690017 0.002200905 -0.0040226486 0.008254202
000260 bf 48 b2 3b 47 cd a4 3a 8d e8 89 3c 00 c0 cc b6
       0.005440801 0.0012573384 0.016834522 -6.1020255e-06
000270 27 e0 66 bb 12 5f 08 3b c4 6f 99 3c a0 ca b6 bc
       -0.003522882 0.002080862 0.018730052 -0.022313416
000280 65 3f 51 3c d0 dc a6 3b fa e6 3b 3c 2c c1 99 39
       0.012771462 0.005092241 0.011468643 0.00029326358
000290 64 ae 8d 3a 5f ff 0b 3c 88 55 63 3b 5c 87 93 3b
       0.0010809419 0.008544772 0.0034688432 0.00450222
0002a0 37 5a 9a bb cd 01 a2 3b 5c 1a 8c b9 7d d8 10 bc
       -0.0047104615 0.0049440623 -0.0002672252 -0.008840677
0002b0 2f 9b 67 bc 91 a7 0a b9 ee 9b 3b bb 28 74 5d 3c
       -0.01413612 -0.00013223129 -0.0028626877 0.013516463
0002c0 7b 8e 6f 3c 60 dc dd 3b c2 53 21 3b b1 fc 59 3b
       0.014621372 0.0067706555 0.0024616574 0.0033262188
0002d0 7f 5e a7 ba 42 d8 e4 bd 58 11 2f 3c 1f bc fa 3a
       -0.0012769251 -0.111740604 0.010685287 0.0019129551
0002e0 e2 c5 96 3c 38 10 da 3b 3c 0a 93 3b 29 d2 1d 3c
       0.018404905 0.0066547655 0.004487304 0.009632626
0002f0 3f 90 1a bc c8 6b ca 3a 57 ee 5b 3b cd 6f db 3a
       -0.009433805 0.0015443498 0.003355881 0.0016741693
000300 98 d9 a1 ba 23 06 54 3b e0 6d 23 3c fb d9 55 3c
       -0.0012348173 0.003235229 0.009974927 0.013052459
000310 09 9a 7b 3b ca aa a3 3b 8e cd d4 3a 43 dc d9 39
       0.0038391373 0.004994725 0.0016235576 0.00041553573
000320 ec 8f ad 3b 1e c7 ec 3a e4 26 c5 bb eb 50 71 3b
       0.005296698 0.0018064713 -0.006016599 0.0036821913
000330 88 e6 32 3c f7 62 0c bc 6e 98 31 bc ca 98 fd 3d
       0.010919221 -0.008568517 -0.010839565 0.12382658
000340 ad 05 5a 3c 3d e1 ac 3c 53 97 b8 3b d5 a6 0d 3c
       0.013307017 0.021103496 0.0056332736 0.008645733
000350 99 88 84 3c ba 1f a1 ba 02 64 6b 3b a8 2c 75 3b
       0.016178416 -0.001229278 0.0035917764 0.003741065
000360 e2 ef d3 3b e3 38 52 bb 31 f0 2d 3c b4 c9 03 3c
       0.0064678052 -0.0032077364 0.010616348 0.008043695
000370 c4 88 14 bb 83 ac 4d bb 6b 6a 2b 3b 48 40 e4 bb
       -0.0022664526 -0.0031383343 0.002615596 -0.0069656707
000380 e0 c4 c5 3c ad 79 ab ba 5e f2 c7 bb af 2c 8f 3c
       0.024141729 -0.0013082527 -0.0061018905 0.017477361
000390 71 1d b2 ba 8d 06 8a ba 64 38 b4 bb c1 98 6f 3b
       -0.0013589096 -0.0010530517 -0.0054998863 0.0036559554
0003a0 35 3e ee bc 3f 25 9a bb ed 94 d2 3b 7b 04 69 bc
       -0.029082397 -0.004704147 0.0064264447 -0.01422226
0003b0 40 41 bd bc 58 ea 8f 3d 54 99 0f 3a 8c 80 16 bb
       -0.023102403 0.070271194 0.0005477865 -0.0022964804
0003c0 e3 b4 8a bb a8 38 cb 3a 37 34 bc bb 07 6b 0a 3c
       -0.004232989 0.0015504556 -0.005743529 0.008448369
0003d0 11 25 7d 3c a6 e4 9b 3c 15 6d 59 39 e8 5b a3 3b
       0.015450732 0.019029927 0.00020735369 0.0049853213
0003e0 bf 37 52 3c 9b 29 8f 3c 86 d3 9e 3c 61 b2 ca 3c
       0.012830674 0.017475894 0.019387972 0.02474326
0003f0 de 01 b3 3c 06 84 ae bb 83 f3 55 3b c0 b5 50 ba
       0.021851476 -0.005325797 0.0032646365 -0.0007961653

bias f4 [40]
000000 29 fb 6b bc a3 ce 8d 3c cd 8a d9 3c dd 1a 6f 3d
       -0.014403143 0.017310446 0.026555443 0.05837523
000010 2b 05 bb 3b a7 0e 1d 3d e1 cb 2d 3d c7 d7 77 3d
       0.005707403 0.03834405 0.042430762 0.060508516
000020 57 a9 4e bc 5c 9d 14 bd d0 18 f0 bc d9 4b 27 3b
       -0.012613616 -0.036282882 -0.029308707 0.0025527386
000030 bd 7b 8a 3d 6d 58 0e 3c 4a 96 3d bc 66 8f d6 3b
       0.067618825 0.008688075 -0.011571476 0.006547856
000040 50 a0 0c 3c f4 22 2a 3d 98 31 82 bd ae 9b 6a 3a
       0.008583143 0.04153724 -0.063571155 0.00089495897
000050 43 e3 7c bc c7 4c 89 3c 80 55 0c bd 57 d3 58 3b
       -0.015435043 0.016760243 -0.034261227 0.0033084953
000060 ed 22 08 3d 4d 49 82 bd df a5 ba ba 39 2a b3 bc
       0.033236433 -0.06361637 -0.0014240107 -0.02187072
000070 ef 15 66 3d 7e 49 01 bd 75 cc 92 3d 4d 76 3e bb
       0.05617326 -0.03156423 0.07167903 -0.0029062212
000080 70 b9 09 3d 5b 40 97 3c be d2 4e bd 37 f4 a0 bc
       0.033624113 0.018463304 -0.05049395 -0.0196477
000090 96 a2 08 3d 7d ae 3d 3c 59 7f 7b 3d 71 94 85 bd
       0.03335818 0.011577246 0.061400745 -0.065224536
