ode_net/code/output/2023-9-29(5;42)_chalmers_350genes_150samples_earlyT_0bimod_1initvar_300epochs/interm_models/trained_model_epoch_70_alpha_comb_prods.pt (torch, 170147 bytes, 3 tensors)

weight_orig f4 [350, 40]
00000000: 3f52 ea3a 7a41 12bc 1488 c0bc d97d 203c
00000010: 17a3 3dbc bc93 d93b 240b 17bc 9072 d43a
00000020: b883 2fbc afeb bc3d 0148 25bc c98b 8d3b
00000030: b44d 063d c8f8 be3b eb66 02bd 8d49 6a3c
00000040: 17aa e03b 33f4 ad3d cfcf abbc 07fa fd3b
00000050: 6817 393c 047c 36bc 852d d0ba 98f1 9a3c
00000060: 3a8b 0f39 95a3 5fbb 450d 2ebc 5d86 d13c
00000070: a782 ccbb 7702 38bd 45f3 103b 0226 353b
00000080: cd6c 57bd 653f 733d ef57 debc 7795 e03c
00000090: 7766 30bb 56b2 d8bb 710a 7b3d d663 94bd
000000a0: a8ed 92ba 0034 17b8 9a5b e539 5633 00ba
000000b0: a0cc 59b9 b66f bc3a 8c07 2eba b612 253a
000000c0: c8f5 b439 cc4b 1c3a 7104 d339 0be3 8f39
000000d0: ed50 743a 2691 5db8 87ef b03c 51b2 37ba
000000e0: 3339 3cba 203b ebbc 8377 e3b9 16ac 4a39
000000f0: 6b9a dfba b79c 053a b1b2 4d39 5ab4 10ba
00000100: b68f 2439 b559 d1b9 3dd8 75b8 bd8e 9b3a
00000110: ed32 cab9 d238 843a 4662 2cba f9a6 41b9
00000120: 4147 e1b6 f3e0 5c3c 230d da3a f52f ee39
00000130: 602b 9839 f0fa 89ba 8bb6 903a 2a19 0d3a
00000140: c7ad 6dbb fcd5 543a 33e7 913a 6c1e a5bb
00000150: 7c93 043c 40e0 c2bb 7663 8439 6055 613a
00000160: 05c9 513b e338 1d3d 125a 4b39 34e2 a8ba
00000170: b509 843c 5967 abba 4fd3 0dba 96de c0bb
00000180: d91a c2bb f0a1 eebd eff7 7d3b 7b56 2c3b
00000190: dd5c b5bb 984e 5cbb 801d 11bb 51dd c039
000001a0: 4b0e 22bb 19b2 24bc cf2c 173d 0d09 f13c
000001b0: fb8d 9e3b 7e6d 793b 18c2 e1ba ad67 783b
000001c0: 10d0 51bb cb39 b73b d9dd bb3b 3016 ff3a
000001d0: 23d8 4e3b 847b b03b 89c8 f739 bf62 5dbd
000001e0: af86 09ba 5321 00ba 23db 16bb bf38 833a
000001f0: 10ce dbb7 083f 683c 8a4c 7c3b 2eca b7ba
00000200: be7b 7cbb 0075 07bd 3d27 e9ba c804 f5ba
00000210: e800 79b8 3e1d a03a 826b 6d3d af20 96bb
00000220: 2ced 8dba b456 a03d 3bb7 e23b fc0f 87bb
00000230: 9d57 0dbc a7d7 faba d73a e73a e364 19bb
00000240: 1551 083b 2c92 9eba 6db1 f6bc 695b 3f3c
00000250: 5198 353b 81e2 4039 b4a3 dfba f41a a9ba
00000260: 609f b93c 671e 343c 741d eabb e574 38bb
00000270: 40c6 10ba 1ad4 c23b 0ab7 96bc 50d1 a43a
00000280: 56dd d73a 547e 34b8 e2ce 19bb 609d c7ba
00000290: 00cb d6ba 2ae5 de3a a5b4 66bb a217 a23a
000002a0: 5a87 763a dd15 d23c 7c4b 373a d956 de3a
000002b0: ce0b 22ba 997c dfb9 2b8d b33a 93fb 9bbb
000002c0: b33f 86ba 60a2 70bb 73dc 6a3b 3eb7 ed38
000002d0: 4aee ba3b 1515 613a 5eaf 7fba 83c6 90b9
000002e0: 896b e73a 36a9 763a b27c f739 28ff 493b
000002f0: 57e1 77bb f482 8fbb 4ea6 4ab7 22ab 173a
00000300: 4e16 87bc 9737 483d b627 553b e279 8fba
00000310: 5010 4e3a 4561 cfbb df06 cebc 17e8 923c
00000320: 6957 e13c e16e 913b f418 043d 1b12 083c
00000330: 4b44 4ab8 1bdf 843c b474 f4bb 41a6 0b3b
00000340: cc8c 85bb b20c df3b 6133 8bbc ab6c 003b
00000350: bb81 073d 8609 ffbb 7db2 59bc 14fe 03bb
00000360: 9f30 133b d6f8 32bd e781 473b c9e0 893c
00000370: 7e2d f53b 853a ebbb c3e4 89bb 3c80 34bb
00000380: 382b df3a b4be 28bb f7b8 cebc d27c 34bd
00000390: 38a9 33b8 2e37 55bb a8f7 98bb 0d0d c1b9
000003a0: cade 67bd 4b02 f03b 3d75 8d3b 0b21 903c
000003b0: a429 c5ba 5288 23bd f1a5 683d c146 a53d
000003c0: 90ed f83c 167a 31bb 42b6 12bb 739d c53b
000003d0: a6b0 38bc 78b9 e13b 76cd 113b ac02 f93a
000003e0: 29eb 4aba f002 80bb a002 f33a 323d e93b
000003f0: f334 c0b9 edd0 0b3b dffd af3d 6b31 183c
0.0017877294 -0.008926744 -0.023502387 0.009795629 -0.011574528 0.0066399258 -0.009218965 0.0016208459
-0.010712557 0.092246406 -0.010087968 0.004319642 0.032788947 0.005827997 -0.03183643 0.014299762
0.006856214 0.08493843 -0.020973114 0.007750753 0.011297084 -0.011137966 -0.0015882707 0.018914029
0.00013689409 -0.0034124602 -0.010623281 0.025576765 -0.006241161 -0.044924226 0.0022117656 0.0027641063
-0.052593995 0.05938663 -0.02714154 0.02741502 -0.0026916543 -0.006613056 0.061289255 -0.07245605
-0.0011209743 -3.6049634e-05 0.00043746532 -0.0004890462 -0.00020770961 0.0014376554 -0.0006638698 0.00062970386
0.00034515397 0.00059622223 0.00040248365 0.00027444246 0.000931992 -5.2825686e-05 0.02159859 -0.0007007467
-0.0007180154 -0.028714716 -0.00043385857 0.00019328328 -0.001705957 0.00050968997 0.00019616891 -0.00055200385
0.00015693795 -0.00039930423 -5.861394e-05 0.0011868101 -0.00038566385 0.0010087735 -0.0006575923 -0.00018468116
-6.7138176e-06 0.013481366 0.0016635995 0.00045430628 0.00029024016 -0.0010527056 0.001104073 0.0005382473
-0.003626691 0.00081190444 0.0011131525 -0.005039027 0.008091804 -0.005947143 0.00025251106 0.0008595791
0.0032010686 0.03838433 0.00019393142 -0.0012884797 0.01611791 -0.0013077065 -0.00054102106 -0.0058859093
-0.0059236106 -0.11651981 0.0038752516 0.0026296664 -0.005534752 -0.0033616181 -0.0022142828 0.00036785987
-0.0024727758 -0.010052227 0.036907967 0.029423261 0.0048387027 0.0038059647 -0.0017223982 0.0037903592
-0.0032014884 0.0055916063 0.0057332334 0.0019461568 0.0031561933 0.005385818 0.00047260922 -0.05404925
-0.00052462047 -0.0004887778 -0.00230188 0.0010011418 -2.620279e-05 0.014175184 0.003849777 -0.0014022046
-0.0038525905 -0.033070564 -0.0017788183 -0.0018693442 -5.936707e-05 0.0012215746 0.057963856 -0.004581533
-0.0010828129 0.07829037 0.0069188154 -0.0041217785 -0.008626846 -0.0019137756 0.0017641437 -0.002340608
0.0020800282 -0.0012098006 -0.0301139 0.011679509 0.0027709196 0.00018394926 -0.0017062337 -0.0012901709
0.022659004 0.010993577 -0.0071446244 -0.0028145846 -0.00055227056 0.0059456946 -0.018397827 0.0012574587
0.0016469161 -4.3032996e-05 -0.002346926 -0.0015229397 -0.0016387403 0.0017005552 -0.0035202887 0.0012366662
0.0009404324 0.02564519 0.0006992144 0.0016963138 -0.00061815686 -0.00042626707 0.0013698688 -0.0047602146
-0.0010242373 -0.0036717877 0.0035836964 0.00011335172 0.005704676 0.00085862103 -0.000975361 -0.00027613723
0.0017655949 0.00094093697 0.00047204416 0.003082225 -0.0037823522 -0.0043796245 -1.2078859e-05 0.00057856936
-0.016490128 0.04888114 0.003252489 -0.0010946358 0.0007860707 -0.006328734 -0.02514976 0.017932935
0.0275075 0.0044382666 0.03225036 0.008305098 -4.8224156e-05 0.016219666 -0.007460201 0.0021308812
-0.004075622 0.0068069333 -0.016992273 0.001959602 0.033082705 -0.0077831177 -0.013287184 -0.0020140456
0.00224594 -0.04369434 0.0030442418 0.016830819 0.0074822297 -0.007178607 -0.0042081787 -0.0027542254
0.001702643 -0.0025748434 -0.025234682 -0.04406435 -4.2834523e-05 -0.003253411 -0.004668195 -0.00036821552
-0.056608953 0.007324492 0.0043169544 0.017593881 -0.0015042317 -0.039924927 0.05679888 0.08070136
0.030386716 -0.0027080826 -0.0022386466 0.0060307323 -0.011272585 0.0068885647 0.0022247708 0.0018997989
-0.000774073 -0.0039066 0.0018540211 0.0071178908 -0.00036660544 0.0021334246 0.08593344 0.009289126

weight_mask f4 [350, 40]
00000000: 0000 803f 0000 803f 0000 803f 0000 803f
00000010: 0000 803f 0000 803f 0000 803f 0000 803f
00000020: 0000 803f 0000 803f 0000 803f 0000 803f
00000030: 0000 803f 0000 803f 0000 803f 0000 803f
00000040: 0000 803f 0000 803f 0000 803f 0000 803f
00000050: 0000 803f 0000 803f 0000 803f 0000 803f
00000060: 0000 803f 0000 803f 0000 803f 0000 803f
00000070: 0000 803f 0000 803f 0000 803f 0000 803f
00000080: 0000 803f 0000 803f 0000 803f 0000 803f
00000090: 0000 803f 0000 803f 0000 803f 0000 803f
000000a0: 0000 803f 0000 803f 0000 803f 0000 803f
000000b0: 0000 803f 0000 803f 0000 803f 0000 803f
000000c0: 0000 803f 0000 803f 0000 803f 0000 803f
000000d0: 0000 803f 0000 803f 0000 803f 0000 803f
000000e0: 0000 803f 0000 803f 0000 803f 0000 803f
000000f0: 0000 803f 0000 803f 0000 803f 0000 803f
00000100: 0000 803f 0000 803f 0000 803f 0000 803f
00000110: 0000 803f 0000 803f 0000 803f 0000 803f
00000120: 0000 803f 0000 803f 0000 803f 0000 803f
00000130: 0000 803f 0000 803f 0000 803f 0000 803f
00000140: 0000 803f 0000 803f 0000 803f 0000 803f
00000150: 0000 803f 0000 803f 0000 803f 0000 803f
00000160: 0000 803f 0000 803f 0000 803f 0000 803f
00000170: 0000 803f 0000 803f 0000 803f 0000 803f
00000180: 0000 803f 0000 803f 0000 803f 0000 803f
00000190: 0000 803f 0000 803f 0000 803f 0000 803f
000001a0: 0000 803f 0000 803f 0000 803f 0000 803f
000001b0: 0000 803f 0000 803f 0000 803f 0000 803f
000001c0: 0000 803f 0000 803f 0000 803f 0000 803f
000001d0: 0000 803f 0000 803f 0000 803f 0000 803f
000001e0: 0000 803f 0000 803f 0000 803f 0000 803f
000001f0: 0000 803f 0000 803f 0000 803f 0000 803f
00000200: 0000 803f 0000 803f 0000 803f 0000 803f
00000210: 0000 803f 0000 803f 0000 803f 0000 803f
00000220: 0000 803f 0000 803f 0000 803f 0000 803f
00000230: 0000 803f 0000 803f 0000 803f 0000 803f
00000240: 0000 803f 0000 803f 0000 803f 0000 803f
00000250: 0000 803f 0000 803f 0000 803f 0000 803f
00000260: 0000 803f 0000 803f 0000 803f 0000 803f
00000270: 0000 803f 0000 803f 0000 803f 0000 803f
00000280: 0000 803f 0000 803f 0000 803f 0000 803f
00000290: 0000 803f 0000 803f 0000 803f 0000 803f
000002a0: 0000 803f 0000 803f 0000 803f 0000 803f
000002b0: 0000 803f 0000 803f 0000 803f 0000 803f
000002c0: 0000 803f 0000 803f 0000 803f 0000 803f
000002d0: 0000 803f 0000 803f 0000 803f 0000 803f
000002e0: 0000 803f 0000 803f 0000 803f 0000 803f
000002f0: 0000 803f 0000 803f 0000 803f 0000 803f
00000300: 0000 803f 0000 803f 0000 803f 0000 803f
00000310: 0000 803f 0000 803f 0000 803f 0000 803f
00000320: 0000 803f 0000 803f 0000 803f 0000 803f
00000330: 0000 803f 0000 803f 0000 803f 0000 803f
00000340: 0000 803f 0000 803f 0000 803f 0000 803f
00000350: 0000 803f 0000 803f 0000 803f 0000 803f
00000360: 0000 803f 0000 803f 0000 803f 0000 803f
00000370: 0000 803f 0000 803f 0000 803f 0000 803f
00000380: 0000 803f 0000 803f 0000 803f 0000 803f
00000390: 0000 803f 0000 803f 0000 803f 0000 803f
000003a0: 0000 803f 0000 803f 0000 803f 0000 803f
000003b0: 0000 803f 0000 803f 0000 803f 0000 803f
000003c0: 0000 803f 0000 803f 0000 803f 0000 803f
000003d0: 0000 803f 0000 803f 0000 803f 0000 803f
000003e0: 0000 803f 0000 803f 0000 803f 0000 803f
000003f0: 0000 803f 0000 803f 0000 803f 0000 803f
1.0 1.0 1.0 1.0 1.0 1.0 1.0 1.0
1.0 1.0 1.0 1.0 1.0 1.0 1.0 1.0
1.0 1.0 1.0 1.0 1.0 1.0 1.0 1.0
1.0 1.0 1.0 1.0 1.0 1.0 1.0 1.0
1.0 1.0 1.0 1.0 1.0 1.0 1.0 1.0
1.0 1.0 1.0 1.0 1.0 1.0 1.0 1.0
1.0 1.0 1.0 1.0 1.0 1.0 1.0 1.0
1.0 1.0 1.0 1.0 1.0 1.0 1.0 1.0
1.0 1.0 1.0 1.0 1.0 1.0 1.0 1.0
1.0 1.0 1.0 1.0 1.0 1.0 1.0 1.0
1.0 1.0 1.0 1.0 1.0 1.0 1.0 1.0
1.0 1.0 1.0 1.0 1.0 1.0 1.0 1.0
1.0 1.0 1.0 1.0 1.0 1.0 1.0 1.0
1.0 1.0 1.0 1.0 1.0 1.0 1.0 1.0
1.0 1.0 1.0 1.0 1.0 1.0 1.0 1.0
1.0 1.0 1.0 1.0 1.0 1.0 1.0 1.0
1.0 1.0 1.0 1.0 1.0 1.0 1.0 1.0
1.0 1.0 1.0 1.0 1.0 1.0 1.0 1.0
1.0 1.0 1.0 1.0 1.0 1.0 1.0 1.0
1.0 1.0 1.0 1.0 1.0 1.0 1.0 1.0
1.0 1.0 1.0 1.0 1.0 1.0 1.0 1.0
1.0 1.0 1.0 1.0 1.0 1.0 1.0 1.0
1.0 1.0 1.0 1.0 1.0 1.0 1.0 1.0
1.0 1.0 1.0 1.0 1.0 1.0 1.0 1.0
1.0 1.0 1.0 1.0 1.0 1.0 1.0 1.0
1.0 1.0 1.0 1.0 1.0 1.0 1.0 1.0
1.0 1.0 1.0 1.0 1.0 1.0 1.0 1.0
1.0 1.0 1.0 1.0 1.0 1.0 1.0 1.0
1.0 1.0 1.0 1.0 1.0 1.0 1.0 1.0
1.0 1.0 1.0 1.0 1.0 1.0 1.0 1.0
1.0 1.0 1.0 1.0 1.0 1.0 1.0 1.0
1.0 1.0 1.0 1.0 1.0 1.0 1.0 1.0

weight f4 [350, 40]
00000000: 3f52 ea3a 7a41 12bc 1488 c0bc d97d 203c
00000010: 17a3 3dbc bc93 d93b 240b 17bc 9072 d43a
00000020: b883 2fbc afeb bc3d 0148 25bc c98b 8d3b
00000030: b44d 063d c8f8 be3b eb66 02bd 8d49 6a3c
00000040: 17aa e03b 33f4 ad3d cfcf abbc 07fa fd3b
00000050: 6817 393c 047c 36bc 852d d0ba 98f1 9a3c
00000060: 3a8b 0f39 95a3 5fbb 450d 2ebc 5d86 d13c
00000070: a782 ccbb 7702 38bd 45f3 103b 0226 353b
00000080: cd6c 57bd 653f 733d ef57 debc 7795 e03c
00000090: 7766 30bb 56b2 d8bb 710a 7b3d d663 94bd
000000a0: a8ed 92ba 0034 17b8 9a5b e539 5633 00ba
000000b0: a0cc 59b9 b66f bc3a 8c07 2eba b612 253a
000000c0: c8f5 b439 cc4b 1c3a 7104 d339 0be3 8f39
000000d0: ed50 743a 2691 5db8 87ef b03c 51b2 37ba
000000e0: 3339 3cba 203b ebbc 8377 e3b9 16ac 4a39
000000f0: 6b9a dfba b79c 053a b1b2 4d39 5ab4 10ba
00000100: b68f 2439 b559 d1b9 3dd8 75b8 bd8e 9b3a
00000110: ed32 cab9 d238 843a 4662 2cba f9a6 41b9
00000120: 4147 e1b6 f3e0 5c3c 230d da3a f52f ee39
00000130: 602b 9839 f0fa 89ba 8bb6 903a 2a19 0d3a
00000140: c7ad 6dbb fcd5 543a 33e7 913a 6c1e a5bb
00000150: 7c93 043c 40e0 c2bb 7663 8439 6055 613a
00000160: 05c9 513b e338 1d3d 125a 4b39 34e2 a8ba
00000170: b509 843c 5967 abba 4fd3 0dba 96de c0bb
00000180: d91a c2bb f0a1 eebd eff7 7d3b 7b56 2c3b
00000190: dd5c b5bb 984e 5cbb 801d 11bb 51dd c039
000001a0: 4b0e 22bb 19b2 24bc cf2c 173d 0d09 f13c
000001b0: fb8d 9e3b 7e6d 793b 18c2 e1ba ad67 783b
000001c0: 10d0 51bb cb39 b73b d9dd bb3b 3016 ff3a
000001d0: 23d8 4e3b 847b b03b 89c8 f739 bf62 5dbd
000001e0: af86 09ba 5321 00ba 23db 16bb bf38 833a
000001f0: 10ce dbb7 083f 683c 8a4c 7c3b 2eca b7ba
00000200: be7b 7cbb 0075 07bd 3d27 e9ba c804 f5ba
00000210: e800 79b8 3e1d a03a 826b 6d3d af20 96bb
00000220: 2ced 8dba b456 a03d 3bb7 e23b fc0f 87bb
00000230: 9d57 0dbc a7d7 faba d73a e73a e364 19bb
00000240: 1551 083b 2c92 9eba 6db1 f6bc 695b 3f3c
00000250: 5198 353b 81e2 4039 b4a3 dfba f41a a9ba
00000260: 609f b93c 671e 343c 741d eabb e574 38bb
00000270: 40c6 10ba 1ad4 c23b 0ab7 96bc 50d1 a43a
00000280: 56dd d73a 547e 34b8 e2ce 19bb 609d c7ba
00000290: 00cb d6ba 2ae5 de3a a5b4 66bb a217 a23a
000002a0: 5a87 763a dd15 d23c 7c4b 373a d956 de3a
000002b0: ce0b 22ba 997c dfb9 2b8d b33a 93fb 9bbb
000002c0: b33f 86ba 60a2 70bb 73dc 6a3b 3eb7 ed38
000002d0: 4aee ba3b 1515 613a 5eaf 7fba 83c6 90b9
000002e0: 896b e73a 36a9 763a b27c f739 28ff 493b
000002f0: 57e1 77bb f482 8fbb 4ea6 4ab7 22ab 173a
00000300: 4e16 87bc 9737 483d b627 553b e279 8fba
00000310: 5010 4e3a 4561 cfbb df06 cebc 17e8 923c
00000320: 6957 e13c e16e 913b f418 043d 1b12 083c
00000330: 4b44 4ab8 1bdf 843c b474 f4bb 41a6 0b3b
00000340: cc8c 85bb b20c df3b 6133 8bbc ab6c 003b
00000350: bb81 073d 8609 ffbb 7db2 59bc 14fe 03bb
00000360: 9f30 133b d6f8 32bd e781 473b c9e0 893c
00000370: 7e2d f53b 853a ebbb c3e4 89bb 3c80 34bb
00000380: 382b df3a b4be 28bb f7b8 cebc d27c 34bd
00000390: 38a9 33b8 2e37 55bb a8f7 98bb 0d0d c1b9
000003a0: cade 67bd 4b02 f03b 3d75 8d3b 0b21 903c
000003b0: a429 c5ba 5288 23bd f1a5 683d c146 a53d
000003c0: 90ed f83c 167a 31bb 42b6 12bb 739d c53b
000003d0: a6b0 38bc 78b9 e13b 76cd 113b ac02 f93a
000003e0: 29eb 4aba f002 80bb a002 f33a 323d e93b
000003f0: f334 c0b9 edd0 0b3b dffd af3d 6b31 183c
0.0017877294 -0.008926744 -0.023502387 0.009795629 -0.011574528 0.0066399258 -0.009218965 0.0016208459
-0.010712557 0.092246406 -0.010087968 0.004319642 0.032788947 0.005827997 -0.03183643 0.014299762
0.006856214 0.08493843 -0.020973114 0.007750753 0.011297084 -0.011137966 -0.0015882707 0.018914029
0.00013689409 -0.0034124602 -0.010623281 0.025576765 -0.006241161 -0.044924226 0.0022117656 0.0027641063
-0.052593995 0.05938663 -0.02714154 0.02741502 -0.0026916543 -0.006613056 0.061289255 -0.07245605
-0.0011209743 -3.6049634e-05 0.00043746532 -0.0004890462 -0.00020770961 0.0014376554 -0.0006638698 0.00062970386
0.00034515397 0.00059622223 0.00040248365 0.00027444246 0.000931992 -5.2825686e-05 0.02159859 -0.0007007467
-0.0007180154 -0.028714716 -0.00043385857 0.00019328328 -0.001705957 0.00050968997 0.00019616891 -0.00055200385
0.00015693795 -0.00039930423 -5.861394e-05 0.0011868101 -0.00038566385 0.0010087735 -0.0006575923 -0.00018468116
-6.7138176e-06 0.013481366 0.0016635995 0.00045430628 0.00029024016 -0.0010527056 0.001104073 0.0005382473
-0.003626691 0.00081190444 0.0011131525 -0.005039027 0.008091804 -0.005947143 0.00025251106 0.0008595791
0.0032010686 0.03838433 0.00019393142 -0.0012884797 0.01611791 -0.0013077065 -0.00054102106 -0.0058859093
-0.0059236106 -0.11651981 0.0038752516 0.0026296664 -0.005534752 -0.0033616181 -0.0022142828 0.00036785987
-0.0024727758 -0.010052227 0.036907967 0.029423261 0.0048387027 0.0038059647 -0.0017223982 0.0037903592
-0.0032014884 0.0055916063 0.0057332334 0.0019461568 0.0031561933 0.005385818 0.00047260922 -0.05404925
-0.00052462047 -0.0004887778 -0.00230188 0.0010011418 -2.620279e-05 0.014175184 0.003849777 -0.0014022046
-0.0038525905 -0.033070564 -0.0017788183 -0.0018693442 -5.936707e-05 0.0012215746 0.057963856 -0.004581533
-0.0010828129 0.07829037 0.0069188154 -0.0041217785 -0.008626846 -0.0019137756 0.0017641437 -0.002340608
0.0020800282 -0.0012098006 -0.0301139 0.011679509 0.0027709196 0.00018394926 -0.0017062337 -0.0012901709
0.022659004 0.010993577 -0.0071446244 -0.0028145846 -0.00055227056 0.0059456946 -0.018397827 0.0012574587
0.0016469161 -4.3032996e-05 -0.002346926 -0.0015229397 -0.0016387403 0.0017005552 -0.0035202887 0.0012366662
0.0009404324 0.02564519 0.0006992144 0.0016963138 -0.00061815686 -0.00042626707 0.0013698688 -0.0047602146
-0.0010242373 -0.0036717877 0.0035836964 0.00011335172 0.005704676 0.00085862103 -0.000975361 -0.00027613723
0.0017655949 0.00094093697 0.00047204416 0.003082225 -0.0037823522 -0.0043796245 -1.2078859e-05 0.00057856936
-0.016490128 0.04888114 0.003252489 -0.0010946358 0.0007860707 -0.006328734 -0.02514976 0.017932935
0.0275075 0.0044382666 0.03225036 0.008305098 -4.8224156e-05 0.016219666 -0.007460201 0.0021308812
-0.004075622 0.0068069333 -0.016992273 0.001959602 0.033082705 -0.0077831177 -0.013287184 -0.0020140456
0.00224594 -0.04369434 0.0030442418 0.016830819 0.0074822297 -0.007178607 -0.0042081787 -0.0027542254
0.001702643 -0.0025748434 -0.025234682 -0.04406435 -4.2834523e-05 -0.003253411 -0.004668195 -0.00036821552
-0.056608953 0.007324492 0.0043169544 0.017593881 -0.0015042317 -0.039924927 0.05679888 0.08070136
0.030386716 -0.0027080826 -0.0022386466 0.0060307323 -0.011272585 0.0068885647 0.0022247708 0.0018997989
-0.000774073 -0.0039066 0.0018540211 0.0071178908 -0.00036660544 0.0021334246 0.08593344 0.009289126
